<?xml version="1.0"?>
<net name="Model0" version="11">
	<layers>
		<layer id="0" name="x" type="Parameter" version="opset1">
			<data shape="?,3,?,?" element_type="f32" />
			<output>
				<port id="0" precision="FP32" names="x">
					<dim>-1</dim>
					<dim>3</dim>
					<dim>-1</dim>
					<dim>-1</dim>
				</port>
			</output>
		</layer>
		<layer id="1" name="aten::zeros/Convert_compressed" type="Const" version="opset1">
			<data element_type="f16" shape="" offset="0" size="2" />
			<output>
				<port id="0" precision="FP16" />
			</output>
		</layer>
		<layer id="2" name="aten::zeros/Convert" type="Convert" version="opset1">
			<data destination_type="f32" />
			<rt_info>
				<attribute name="decompression" version="0" />
			</rt_info>
			<input>
				<port id="0" precision="FP16" />
			</input>
			<output>
				<port id="1" precision="FP32" />
			</output>
		</layer>
		<layer id="3" name="self.model.model.0.conv.weight_compressed" type="Const" version="opset1">
			<data element_type="f16" shape="15, 3, 3, 3" offset="2" size="810" />
			<output>
				<port id="0" precision="FP16" names="self.model.model.0.conv.weight">
					<dim>15</dim>
					<dim>3</dim>
					<dim>3</dim>
					<dim>3</dim>
				</port>
			</output>
		</layer>
		<layer id="4" name="self.model.model.0.conv.weight" type="Convert" version="opset1">
			<data destination_type="f32" />
			<rt_info>
				<attribute name="decompression" version="0" />
			</rt_info>
			<input>
				<port id="0" precision="FP16">
					<dim>15</dim>
					<dim>3</dim>
					<dim>3</dim>
					<dim>3</dim>
				</port>
			</input>
			<output>
				<port id="1" precision="FP32">
					<dim>15</dim>
					<dim>3</dim>
					<dim>3</dim>
					<dim>3</dim>
				</port>
			</output>
		</layer>
		<layer id="5" name="__module.model.model.0.conv/aten::_convolution/Convolution" type="Convolution" version="opset1">
			<data strides="2, 2" dilations="1, 1" pads_begin="1, 1" pads_end="1, 1" auto_pad="explicit" />
			<input>
				<port id="0" precision="FP32">
					<dim>-1</dim>
					<dim>3</dim>
					<dim>-1</dim>
					<dim>-1</dim>
				</port>
				<port id="1" precision="FP32">
					<dim>15</dim>
					<dim>3</dim>
					<dim>3</dim>
					<dim>3</dim>
				</port>
			</input>
			<output>
				<port id="2" precision="FP32">
					<dim>-1</dim>
					<dim>15</dim>
					<dim>-1</dim>
					<dim>-1</dim>
				</port>
			</output>
		</layer>
		<layer id="6" name="__module.model.model.0.conv/aten::_convolution/Reshape_compressed" type="Const" version="opset1">
			<data element_type="f16" shape="1, 15, 1, 1" offset="812" size="30" />
			<output>
				<port id="0" precision="FP16">
					<dim>1</dim>
					<dim>15</dim>
					<dim>1</dim>
					<dim>1</dim>
				</port>
			</output>
		</layer>
		<layer id="7" name="__module.model.model.0.conv/aten::_convolution/Reshape" type="Convert" version="opset1">
			<data destination_type="f32" />
			<rt_info>
				<attribute name="decompression" version="0" />
			</rt_info>
			<input>
				<port id="0" precision="FP16">
					<dim>1</dim>
					<dim>15</dim>
					<dim>1</dim>
					<dim>1</dim>
				</port>
			</input>
			<output>
				<port id="1" precision="FP32">
					<dim>1</dim>
					<dim>15</dim>
					<dim>1</dim>
					<dim>1</dim>
				</port>
			</output>
		</layer>
		<layer id="8" name="__module.model.model.0.conv/aten::_convolution/Add" type="Add" version="opset1">
			<data auto_broadcast="numpy" />
			<input>
				<port id="0" precision="FP32">
					<dim>-1</dim>
					<dim>15</dim>
					<dim>-1</dim>
					<dim>-1</dim>
				</port>
				<port id="1" precision="FP32">
					<dim>1</dim>
					<dim>15</dim>
					<dim>1</dim>
					<dim>1</dim>
				</port>
			</input>
			<output>
				<port id="2" precision="FP32" names="4178_1">
					<dim>-1</dim>
					<dim>15</dim>
					<dim>-1</dim>
					<dim>-1</dim>
				</port>
			</output>
		</layer>
		<layer id="9" name="__module.model.model.23.cv3.2.1.1.act/aten::silu_/Swish" type="Swish" version="opset4">
			<input>
				<port id="0" precision="FP32">
					<dim>-1</dim>
					<dim>15</dim>
					<dim>-1</dim>
					<dim>-1</dim>
				</port>
			</input>
			<output>
				<port id="1" precision="FP32" names="4178,input.1">
					<dim>-1</dim>
					<dim>15</dim>
					<dim>-1</dim>
					<dim>-1</dim>
				</port>
			</output>
		</layer>
		<layer id="10" name="self.model.model.1.conv.weight_compressed" type="Const" version="opset1">
			<data element_type="f16" shape="30, 15, 3, 3" offset="842" size="8100" />
			<output>
				<port id="0" precision="FP16" names="self.model.model.1.conv.weight">
					<dim>30</dim>
					<dim>15</dim>
					<dim>3</dim>
					<dim>3</dim>
				</port>
			</output>
		</layer>
		<layer id="11" name="self.model.model.1.conv.weight" type="Convert" version="opset1">
			<data destination_type="f32" />
			<rt_info>
				<attribute name="decompression" version="0" />
			</rt_info>
			<input>
				<port id="0" precision="FP16">
					<dim>30</dim>
					<dim>15</dim>
					<dim>3</dim>
					<dim>3</dim>
				</port>
			</input>
			<output>
				<port id="1" precision="FP32">
					<dim>30</dim>
					<dim>15</dim>
					<dim>3</dim>
					<dim>3</dim>
				</port>
			</output>
		</layer>
		<layer id="12" name="__module.model.model.1.conv/aten::_convolution/Convolution" type="Convolution" version="opset1">
			<data strides="2, 2" dilations="1, 1" pads_begin="1, 1" pads_end="1, 1" auto_pad="explicit" />
			<input>
				<port id="0" precision="FP32">
					<dim>-1</dim>
					<dim>15</dim>
					<dim>-1</dim>
					<dim>-1</dim>
				</port>
				<port id="1" precision="FP32">
					<dim>30</dim>
					<dim>15</dim>
					<dim>3</dim>
					<dim>3</dim>
				</port>
			</input>
			<output>
				<port id="2" precision="FP32">
					<dim>-1</dim>
					<dim>30</dim>
					<dim>-1</dim>
					<dim>-1</dim>
				</port>
			</output>
		</layer>
		<layer id="13" name="__module.model.model.1.conv/aten::_convolution/Reshape_compressed" type="Const" version="opset1">
			<data element_type="f16" shape="1, 30, 1, 1" offset="8942" size="60" />
			<output>
				<port id="0" precision="FP16">
					<dim>1</dim>
					<dim>30</dim>
					<dim>1</dim>
					<dim>1</dim>
				</port>
			</output>
		</layer>
		<layer id="14" name="__module.model.model.1.conv/aten::_convolution/Reshape" type="Convert" version="opset1">
			<data destination_type="f32" />
			<rt_info>
				<attribute name="decompression" version="0" />
			</rt_info>
			<input>
				<port id="0" precision="FP16">
					<dim>1</dim>
					<dim>30</dim>
					<dim>1</dim>
					<dim>1</dim>
				</port>
			</input>
			<output>
				<port id="1" precision="FP32">
					<dim>1</dim>
					<dim>30</dim>
					<dim>1</dim>
					<dim>1</dim>
				</port>
			</output>
		</layer>
		<layer id="15" name="__module.model.model.1.conv/aten::_convolution/Add" type="Add" version="opset1">
			<data auto_broadcast="numpy" />
			<input>
				<port id="0" precision="FP32">
					<dim>-1</dim>
					<dim>30</dim>
					<dim>-1</dim>
					<dim>-1</dim>
				</port>
				<port id="1" precision="FP32">
					<dim>1</dim>
					<dim>30</dim>
					<dim>1</dim>
					<dim>1</dim>
				</port>
			</input>
			<output>
				<port id="2" precision="FP32" names="4187_1">
					<dim>-1</dim>
					<dim>30</dim>
					<dim>-1</dim>
					<dim>-1</dim>
				</port>
			</output>
		</layer>
		<layer id="16" name="__module.model.model.23.cv3.2.1.1.act/aten::silu_/Swish_1" type="Swish" version="opset4">
			<input>
				<port id="0" precision="FP32">
					<dim>-1</dim>
					<dim>30</dim>
					<dim>-1</dim>
					<dim>-1</dim>
				</port>
			</input>
			<output>
				<port id="1" precision="FP32" names="4187,input.5">
					<dim>-1</dim>
					<dim>30</dim>
					<dim>-1</dim>
					<dim>-1</dim>
				</port>
			</output>
		</layer>
		<layer id="17" name="self.model.model.2.cv0.conv.weight_compressed" type="Const" version="opset1">
			<data element_type="f16" shape="15, 30, 1, 1" offset="9002" size="900" />
			<output>
				<port id="0" precision="FP16" names="self.model.model.2.cv0.conv.weight">
					<dim>15</dim>
					<dim>30</dim>
					<dim>1</dim>
					<dim>1</dim>
				</port>
			</output>
		</layer>
		<layer id="18" name="self.model.model.2.cv0.conv.weight" type="Convert" version="opset1">
			<data destination_type="f32" />
			<rt_info>
				<attribute name="decompression" version="0" />
			</rt_info>
			<input>
				<port id="0" precision="FP16">
					<dim>15</dim>
					<dim>30</dim>
					<dim>1</dim>
					<dim>1</dim>
				</port>
			</input>
			<output>
				<port id="1" precision="FP32">
					<dim>15</dim>
					<dim>30</dim>
					<dim>1</dim>
					<dim>1</dim>
				</port>
			</output>
		</layer>
		<layer id="19" name="__module.model.model.2.cv0.conv/aten::_convolution/Convolution" type="Convolution" version="opset1">
			<data strides="1, 1" dilations="1, 1" pads_begin="0, 0" pads_end="0, 0" auto_pad="explicit" />
			<input>
				<port id="0" precision="FP32">
					<dim>-1</dim>
					<dim>30</dim>
					<dim>-1</dim>
					<dim>-1</dim>
				</port>
				<port id="1" precision="FP32">
					<dim>15</dim>
					<dim>30</dim>
					<dim>1</dim>
					<dim>1</dim>
				</port>
			</input>
			<output>
				<port id="2" precision="FP32">
					<dim>-1</dim>
					<dim>15</dim>
					<dim>-1</dim>
					<dim>-1</dim>
				</port>
			</output>
		</layer>
		<layer id="20" name="__module.model.model.2.cv0.conv/aten::_convolution/Reshape_compressed" type="Const" version="opset1">
			<data element_type="f16" shape="1, 15, 1, 1" offset="9902" size="30" />
			<output>
				<port id="0" precision="FP16">
					<dim>1</dim>
					<dim>15</dim>
					<dim>1</dim>
					<dim>1</dim>
				</port>
			</output>
		</layer>
		<layer id="21" name="__module.model.model.2.cv0.conv/aten::_convolution/Reshape" type="Convert" version="opset1">
			<data destination_type="f32" />
			<rt_info>
				<attribute name="decompression" version="0" />
			</rt_info>
			<input>
				<port id="0" precision="FP16">
					<dim>1</dim>
					<dim>15</dim>
					<dim>1</dim>
					<dim>1</dim>
				</port>
			</input>
			<output>
				<port id="1" precision="FP32">
					<dim>1</dim>
					<dim>15</dim>
					<dim>1</dim>
					<dim>1</dim>
				</port>
			</output>
		</layer>
		<layer id="22" name="__module.model.model.2.cv0.conv/aten::_convolution/Add" type="Add" version="opset1">
			<data auto_broadcast="numpy" />
			<input>
				<port id="0" precision="FP32">
					<dim>-1</dim>
					<dim>15</dim>
					<dim>-1</dim>
					<dim>-1</dim>
				</port>
				<port id="1" precision="FP32">
					<dim>1</dim>
					<dim>15</dim>
					<dim>1</dim>
					<dim>1</dim>
				</port>
			</input>
			<output>
				<port id="2" precision="FP32" names="4201_1">
					<dim>-1</dim>
					<dim>15</dim>
					<dim>-1</dim>
					<dim>-1</dim>
				</port>
			</output>
		</layer>
		<layer id="23" name="__module.model.model.23.cv3.2.1.1.act/aten::silu_/Swish_2" type="Swish" version="opset4">
			<input>
				<port id="0" precision="FP32">
					<dim>-1</dim>
					<dim>15</dim>
					<dim>-1</dim>
					<dim>-1</dim>
				</port>
			</input>
			<output>
				<port id="1" precision="FP32" names="4201,input.9">
					<dim>-1</dim>
					<dim>15</dim>
					<dim>-1</dim>
					<dim>-1</dim>
				</port>
			</output>
		</layer>
		<layer id="24" name="self.model.model.2.cv1.conv.weight_compressed" type="Const" version="opset1">
			<data element_type="f16" shape="15, 30, 1, 1" offset="9932" size="900" />
			<output>
				<port id="0" precision="FP16" names="self.model.model.2.cv1.conv.weight">
					<dim>15</dim>
					<dim>30</dim>
					<dim>1</dim>
					<dim>1</dim>
				</port>
			</output>
		</layer>
		<layer id="25" name="self.model.model.2.cv1.conv.weight" type="Convert" version="opset1">
			<data destination_type="f32" />
			<rt_info>
				<attribute name="decompression" version="0" />
			</rt_info>
			<input>
				<port id="0" precision="FP16">
					<dim>15</dim>
					<dim>30</dim>
					<dim>1</dim>
					<dim>1</dim>
				</port>
			</input>
			<output>
				<port id="1" precision="FP32">
					<dim>15</dim>
					<dim>30</dim>
					<dim>1</dim>
					<dim>1</dim>
				</port>
			</output>
		</layer>
		<layer id="26" name="__module.model.model.2.cv1.conv/aten::_convolution/Convolution" type="Convolution" version="opset1">
			<data strides="1, 1" dilations="1, 1" pads_begin="0, 0" pads_end="0, 0" auto_pad="explicit" />
			<input>
				<port id="0" precision="FP32">
					<dim>-1</dim>
					<dim>30</dim>
					<dim>-1</dim>
					<dim>-1</dim>
				</port>
				<port id="1" precision="FP32">
					<dim>15</dim>
					<dim>30</dim>
					<dim>1</dim>
					<dim>1</dim>
				</port>
			</input>
			<output>
				<port id="2" precision="FP32">
					<dim>-1</dim>
					<dim>15</dim>
					<dim>-1</dim>
					<dim>-1</dim>
				</port>
			</output>
		</layer>
		<layer id="27" name="__module.model.model.2.cv1.conv/aten::_convolution/Reshape_compressed" type="Const" version="opset1">
			<data element_type="f16" shape="1, 15, 1, 1" offset="10832" size="30" />
			<output>
				<port id="0" precision="FP16">
					<dim>1</dim>
					<dim>15</dim>
					<dim>1</dim>
					<dim>1</dim>
				</port>
			</output>
		</layer>
		<layer id="28" name="__module.model.model.2.cv1.conv/aten::_convolution/Reshape" type="Convert" version="opset1">
			<data destination_type="f32" />
			<rt_info>
				<attribute name="decompression" version="0" />
			</rt_info>
			<input>
				<port id="0" precision="FP16">
					<dim>1</dim>
					<dim>15</dim>
					<dim>1</dim>
					<dim>1</dim>
				</port>
			</input>
			<output>
				<port id="1" precision="FP32">
					<dim>1</dim>
					<dim>15</dim>
					<dim>1</dim>
					<dim>1</dim>
				</port>
			</output>
		</layer>
		<layer id="29" name="__module.model.model.2.cv1.conv/aten::_convolution/Add" type="Add" version="opset1">
			<data auto_broadcast="numpy" />
			<input>
				<port id="0" precision="FP32">
					<dim>-1</dim>
					<dim>15</dim>
					<dim>-1</dim>
					<dim>-1</dim>
				</port>
				<port id="1" precision="FP32">
					<dim>1</dim>
					<dim>15</dim>
					<dim>1</dim>
					<dim>1</dim>
				</port>
			</input>
			<output>
				<port id="2" precision="FP32" names="4210_1">
					<dim>-1</dim>
					<dim>15</dim>
					<dim>-1</dim>
					<dim>-1</dim>
				</port>
			</output>
		</layer>
		<layer id="30" name="__module.model.model.23.cv3.2.1.1.act/aten::silu_/Swish_3" type="Swish" version="opset4">
			<input>
				<port id="0" precision="FP32">
					<dim>-1</dim>
					<dim>15</dim>
					<dim>-1</dim>
					<dim>-1</dim>
				</port>
			</input>
			<output>
				<port id="1" precision="FP32" names="4210,input.11">
					<dim>-1</dim>
					<dim>15</dim>
					<dim>-1</dim>
					<dim>-1</dim>
				</port>
			</output>
		</layer>
		<layer id="31" name="self.model.model.2.m.0.cv1.conv.weight_compressed" type="Const" version="opset1">
			<data element_type="f16" shape="7, 15, 3, 3" offset="10862" size="1890" />
			<output>
				<port id="0" precision="FP16" names="self.model.model.2.m.0.cv1.conv.weight">
					<dim>7</dim>
					<dim>15</dim>
					<dim>3</dim>
					<dim>3</dim>
				</port>
			</output>
		</layer>
		<layer id="32" name="self.model.model.2.m.0.cv1.conv.weight" type="Convert" version="opset1">
			<data destination_type="f32" />
			<rt_info>
				<attribute name="decompression" version="0" />
			</rt_info>
			<input>
				<port id="0" precision="FP16">
					<dim>7</dim>
					<dim>15</dim>
					<dim>3</dim>
					<dim>3</dim>
				</port>
			</input>
			<output>
				<port id="1" precision="FP32">
					<dim>7</dim>
					<dim>15</dim>
					<dim>3</dim>
					<dim>3</dim>
				</port>
			</output>
		</layer>
		<layer id="33" name="__module.model.model.2.m.0.cv1.conv/aten::_convolution/Convolution" type="Convolution" version="opset1">
			<data strides="1, 1" dilations="1, 1" pads_begin="1, 1" pads_end="1, 1" auto_pad="explicit" />
			<input>
				<port id="0" precision="FP32">
					<dim>-1</dim>
					<dim>15</dim>
					<dim>-1</dim>
					<dim>-1</dim>
				</port>
				<port id="1" precision="FP32">
					<dim>7</dim>
					<dim>15</dim>
					<dim>3</dim>
					<dim>3</dim>
				</port>
			</input>
			<output>
				<port id="2" precision="FP32">
					<dim>-1</dim>
					<dim>7</dim>
					<dim>-1</dim>
					<dim>-1</dim>
				</port>
			</output>
		</layer>
		<layer id="34" name="__module.model.model.2.m.0.cv1.conv/aten::_convolution/Reshape_compressed" type="Const" version="opset1">
			<data element_type="f16" shape="1, 7, 1, 1" offset="12752" size="14" />
			<output>
				<port id="0" precision="FP16">
					<dim>1</dim>
					<dim>7</dim>
					<dim>1</dim>
					<dim>1</dim>
				</port>
			</output>
		</layer>
		<layer id="35" name="__module.model.model.2.m.0.cv1.conv/aten::_convolution/Reshape" type="Convert" version="opset1">
			<data destination_type="f32" />
			<rt_info>
				<attribute name="decompression" version="0" />
			</rt_info>
			<input>
				<port id="0" precision="FP16">
					<dim>1</dim>
					<dim>7</dim>
					<dim>1</dim>
					<dim>1</dim>
				</port>
			</input>
			<output>
				<port id="1" precision="FP32">
					<dim>1</dim>
					<dim>7</dim>
					<dim>1</dim>
					<dim>1</dim>
				</port>
			</output>
		</layer>
		<layer id="36" name="__module.model.model.2.m.0.cv1.conv/aten::_convolution/Add" type="Add" version="opset1">
			<data auto_broadcast="numpy" />
			<input>
				<port id="0" precision="FP32">
					<dim>-1</dim>
					<dim>7</dim>
					<dim>-1</dim>
					<dim>-1</dim>
				</port>
				<port id="1" precision="FP32">
					<dim>1</dim>
					<dim>7</dim>
					<dim>1</dim>
					<dim>1</dim>
				</port>
			</input>
			<output>
				<port id="2" precision="FP32" names="4221_1">
					<dim>-1</dim>
					<dim>7</dim>
					<dim>-1</dim>
					<dim>-1</dim>
				</port>
			</output>
		</layer>
		<layer id="37" name="__module.model.model.23.cv3.2.1.1.act/aten::silu_/Swish_4" type="Swish" version="opset4">
			<input>
				<port id="0" precision="FP32">
					<dim>-1</dim>
					<dim>7</dim>
					<dim>-1</dim>
					<dim>-1</dim>
				</port>
			</input>
			<output>
				<port id="1" precision="FP32" names="4221,input.15">
					<dim>-1</dim>
					<dim>7</dim>
					<dim>-1</dim>
					<dim>-1</dim>
				</port>
			</output>
		</layer>
		<layer id="38" name="self.model.model.2.m.0.cv2.conv.weight_compressed" type="Const" version="opset1">
			<data element_type="f16" shape="15, 7, 3, 3" offset="12766" size="1890" />
			<output>
				<port id="0" precision="FP16" names="self.model.model.2.m.0.cv2.conv.weight">
					<dim>15</dim>
					<dim>7</dim>
					<dim>3</dim>
					<dim>3</dim>
				</port>
			</output>
		</layer>
		<layer id="39" name="self.model.model.2.m.0.cv2.conv.weight" type="Convert" version="opset1">
			<data destination_type="f32" />
			<rt_info>
				<attribute name="decompression" version="0" />
			</rt_info>
			<input>
				<port id="0" precision="FP16">
					<dim>15</dim>
					<dim>7</dim>
					<dim>3</dim>
					<dim>3</dim>
				</port>
			</input>
			<output>
				<port id="1" precision="FP32">
					<dim>15</dim>
					<dim>7</dim>
					<dim>3</dim>
					<dim>3</dim>
				</port>
			</output>
		</layer>
		<layer id="40" name="__module.model.model.2.m.0.cv2.conv/aten::_convolution/Convolution" type="Convolution" version="opset1">
			<data strides="1, 1" dilations="1, 1" pads_begin="1, 1" pads_end="1, 1" auto_pad="explicit" />
			<input>
				<port id="0" precision="FP32">
					<dim>-1</dim>
					<dim>7</dim>
					<dim>-1</dim>
					<dim>-1</dim>
				</port>
				<port id="1" precision="FP32">
					<dim>15</dim>
					<dim>7</dim>
					<dim>3</dim>
					<dim>3</dim>
				</port>
			</input>
			<output>
				<port id="2" precision="FP32">
					<dim>-1</dim>
					<dim>15</dim>
					<dim>-1</dim>
					<dim>-1</dim>
				</port>
			</output>
		</layer>
		<layer id="41" name="__module.model.model.2.m.0.cv2.conv/aten::_convolution/Reshape_compressed" type="Const" version="opset1">
			<data element_type="f16" shape="1, 15, 1, 1" offset="14656" size="30" />
			<output>
				<port id="0" precision="FP16">
					<dim>1</dim>
					<dim>15</dim>
					<dim>1</dim>
					<dim>1</dim>
				</port>
			</output>
		</layer>
		<layer id="42" name="__module.model.model.2.m.0.cv2.conv/aten::_convolution/Reshape" type="Convert" version="opset1">
			<data destination_type="f32" />
			<rt_info>
				<attribute name="decompression" version="0" />
			</rt_info>
			<input>
				<port id="0" precision="FP16">
					<dim>1</dim>
					<dim>15</dim>
					<dim>1</dim>
					<dim>1</dim>
				</port>
			</input>
			<output>
				<port id="1" precision="FP32">
					<dim>1</dim>
					<dim>15</dim>
					<dim>1</dim>
					<dim>1</dim>
				</port>
			</output>
		</layer>
		<layer id="43" name="__module.model.model.2.m.0.cv2.conv/aten::_convolution/Add" type="Add" version="opset1">
			<data auto_broadcast="numpy" />
			<input>
				<port id="0" precision="FP32">
					<dim>-1</dim>
					<dim>15</dim>
					<dim>-1</dim>
					<dim>-1</dim>
				</port>
				<port id="1" precision="FP32">
					<dim>1</dim>
					<dim>15</dim>
					<dim>1</dim>
					<dim>1</dim>
				</port>
			</input>
			<output>
				<port id="2" precision="FP32" names="4230_1">
					<dim>-1</dim>
					<dim>15</dim>
					<dim>-1</dim>
					<dim>-1</dim>
				</port>
			</output>
		</layer>
		<layer id="44" name="__module.model.model.23.cv3.2.1.1.act/aten::silu_/Swish_5" type="Swish" version="opset4">
			<input>
				<port id="0" precision="FP32">
					<dim>-1</dim>
					<dim>15</dim>
					<dim>-1</dim>
					<dim>-1</dim>
				</port>
			</input>
			<output>
				<port id="1" precision="FP32" names="4230,input.19">
					<dim>-1</dim>
					<dim>15</dim>
					<dim>-1</dim>
					<dim>-1</dim>
				</port>
			</output>
		</layer>
		<layer id="45" name="__module.model.model.2.m.0/aten::add/Add" type="Add" version="opset1">
			<data auto_broadcast="numpy" />
			<input>
				<port id="0" precision="FP32">
					<dim>-1</dim>
					<dim>15</dim>
					<dim>-1</dim>
					<dim>-1</dim>
				</port>
				<port id="1" precision="FP32">
					<dim>-1</dim>
					<dim>15</dim>
					<dim>-1</dim>
					<dim>-1</dim>
				</port>
			</input>
			<output>
				<port id="2" precision="FP32" names="4232">
					<dim>-1</dim>
					<dim>15</dim>
					<dim>-1</dim>
					<dim>-1</dim>
				</port>
			</output>
		</layer>
		<layer id="46" name="__module.model.model.2/aten::cat/Concat" type="Concat" version="opset1">
			<data axis="1" />
			<input>
				<port id="0" precision="FP32">
					<dim>-1</dim>
					<dim>15</dim>
					<dim>-1</dim>
					<dim>-1</dim>
				</port>
				<port id="1" precision="FP32">
					<dim>-1</dim>
					<dim>15</dim>
					<dim>-1</dim>
					<dim>-1</dim>
				</port>
				<port id="2" precision="FP32">
					<dim>-1</dim>
					<dim>15</dim>
					<dim>-1</dim>
					<dim>-1</dim>
				</port>
			</input>
			<output>
				<port id="3" precision="FP32" names="4234,input.21">
					<dim>-1</dim>
					<dim>45</dim>
					<dim>-1</dim>
					<dim>-1</dim>
				</port>
			</output>
		</layer>
		<layer id="47" name="self.model.model.2.cv2.conv.weight_compressed" type="Const" version="opset1">
			<data element_type="f16" shape="60, 45, 1, 1" offset="14686" size="5400" />
			<output>
				<port id="0" precision="FP16" names="self.model.model.2.cv2.conv.weight">
					<dim>60</dim>
					<dim>45</dim>
					<dim>1</dim>
					<dim>1</dim>
				</port>
			</output>
		</layer>
		<layer id="48" name="self.model.model.2.cv2.conv.weight" type="Convert" version="opset1">
			<data destination_type="f32" />
			<rt_info>
				<attribute name="decompression" version="0" />
			</rt_info>
			<input>
				<port id="0" precision="FP16">
					<dim>60</dim>
					<dim>45</dim>
					<dim>1</dim>
					<dim>1</dim>
				</port>
			</input>
			<output>
				<port id="1" precision="FP32">
					<dim>60</dim>
					<dim>45</dim>
					<dim>1</dim>
					<dim>1</dim>
				</port>
			</output>
		</layer>
		<layer id="49" name="__module.model.model.2.cv2.conv/aten::_convolution/Convolution" type="Convolution" version="opset1">
			<data strides="1, 1" dilations="1, 1" pads_begin="0, 0" pads_end="0, 0" auto_pad="explicit" />
			<input>
				<port id="0" precision="FP32">
					<dim>-1</dim>
					<dim>45</dim>
					<dim>-1</dim>
					<dim>-1</dim>
				</port>
				<port id="1" precision="FP32">
					<dim>60</dim>
					<dim>45</dim>
					<dim>1</dim>
					<dim>1</dim>
				</port>
			</input>
			<output>
				<port id="2" precision="FP32">
					<dim>-1</dim>
					<dim>60</dim>
					<dim>-1</dim>
					<dim>-1</dim>
				</port>
			</output>
		</layer>
		<layer id="50" name="__module.model.model.2.cv2.conv/aten::_convolution/Reshape_compressed" type="Const" version="opset1">
			<data element_type="f16" shape="1, 60, 1, 1" offset="20086" size="120" />
			<output>
				<port id="0" precision="FP16">
					<dim>1</dim>
					<dim>60</dim>
					<dim>1</dim>
					<dim>1</dim>
				</port>
			</output>
		</layer>
		<layer id="51" name="__module.model.model.2.cv2.conv/aten::_convolution/Reshape" type="Convert" version="opset1">
			<data destination_type="f32" />
			<rt_info>
				<attribute name="decompression" version="0" />
			</rt_info>
			<input>
				<port id="0" precision="FP16">
					<dim>1</dim>
					<dim>60</dim>
					<dim>1</dim>
					<dim>1</dim>
				</port>
			</input>
			<output>
				<port id="1" precision="FP32">
					<dim>1</dim>
					<dim>60</dim>
					<dim>1</dim>
					<dim>1</dim>
				</port>
			</output>
		</layer>
		<layer id="52" name="__module.model.model.2.cv2.conv/aten::_convolution/Add" type="Add" version="opset1">
			<data auto_broadcast="numpy" />
			<input>
				<port id="0" precision="FP32">
					<dim>-1</dim>
					<dim>60</dim>
					<dim>-1</dim>
					<dim>-1</dim>
				</port>
				<port id="1" precision="FP32">
					<dim>1</dim>
					<dim>60</dim>
					<dim>1</dim>
					<dim>1</dim>
				</port>
			</input>
			<output>
				<port id="2" precision="FP32" names="4242_1">
					<dim>-1</dim>
					<dim>60</dim>
					<dim>-1</dim>
					<dim>-1</dim>
				</port>
			</output>
		</layer>
		<layer id="53" name="__module.model.model.23.cv3.2.1.1.act/aten::silu_/Swish_6" type="Swish" version="opset4">
			<input>
				<port id="0" precision="FP32">
					<dim>-1</dim>
					<dim>60</dim>
					<dim>-1</dim>
					<dim>-1</dim>
				</port>
			</input>
			<output>
				<port id="1" precision="FP32" names="4242,input.23">
					<dim>-1</dim>
					<dim>60</dim>
					<dim>-1</dim>
					<dim>-1</dim>
				</port>
			</output>
		</layer>
		<layer id="54" name="self.model.model.3.conv.weight_compressed" type="Const" version="opset1">
			<data element_type="f16" shape="60, 60, 3, 3" offset="20206" size="64800" />
			<output>
				<port id="0" precision="FP16" names="self.model.model.3.conv.weight">
					<dim>60</dim>
					<dim>60</dim>
					<dim>3</dim>
					<dim>3</dim>
				</port>
			</output>
		</layer>
		<layer id="55" name="self.model.model.3.conv.weight" type="Convert" version="opset1">
			<data destination_type="f32" />
			<rt_info>
				<attribute name="decompression" version="0" />
			</rt_info>
			<input>
				<port id="0" precision="FP16">
					<dim>60</dim>
					<dim>60</dim>
					<dim>3</dim>
					<dim>3</dim>
				</port>
			</input>
			<output>
				<port id="1" precision="FP32">
					<dim>60</dim>
					<dim>60</dim>
					<dim>3</dim>
					<dim>3</dim>
				</port>
			</output>
		</layer>
		<layer id="56" name="__module.model.model.3.conv/aten::_convolution/Convolution" type="Convolution" version="opset1">
			<data strides="2, 2" dilations="1, 1" pads_begin="1, 1" pads_end="1, 1" auto_pad="explicit" />
			<input>
				<port id="0" precision="FP32">
					<dim>-1</dim>
					<dim>60</dim>
					<dim>-1</dim>
					<dim>-1</dim>
				</port>
				<port id="1" precision="FP32">
					<dim>60</dim>
					<dim>60</dim>
					<dim>3</dim>
					<dim>3</dim>
				</port>
			</input>
			<output>
				<port id="2" precision="FP32">
					<dim>-1</dim>
					<dim>60</dim>
					<dim>-1</dim>
					<dim>-1</dim>
				</port>
			</output>
		</layer>
		<layer id="57" name="__module.model.model.3.conv/aten::_convolution/Reshape_compressed" type="Const" version="opset1">
			<data element_type="f16" shape="1, 60, 1, 1" offset="85006" size="120" />
			<output>
				<port id="0" precision="FP16">
					<dim>1</dim>
					<dim>60</dim>
					<dim>1</dim>
					<dim>1</dim>
				</port>
			</output>
		</layer>
		<layer id="58" name="__module.model.model.3.conv/aten::_convolution/Reshape" type="Convert" version="opset1">
			<data destination_type="f32" />
			<rt_info>
				<attribute name="decompression" version="0" />
			</rt_info>
			<input>
				<port id="0" precision="FP16">
					<dim>1</dim>
					<dim>60</dim>
					<dim>1</dim>
					<dim>1</dim>
				</port>
			</input>
			<output>
				<port id="1" precision="FP32">
					<dim>1</dim>
					<dim>60</dim>
					<dim>1</dim>
					<dim>1</dim>
				</port>
			</output>
		</layer>
		<layer id="59" name="__module.model.model.3.conv/aten::_convolution/Add" type="Add" version="opset1">
			<data auto_broadcast="numpy" />
			<input>
				<port id="0" precision="FP32">
					<dim>-1</dim>
					<dim>60</dim>
					<dim>-1</dim>
					<dim>-1</dim>
				</port>
				<port id="1" precision="FP32">
					<dim>1</dim>
					<dim>60</dim>
					<dim>1</dim>
					<dim>1</dim>
				</port>
			</input>
			<output>
				<port id="2" precision="FP32" names="4251_1">
					<dim>-1</dim>
					<dim>60</dim>
					<dim>-1</dim>
					<dim>-1</dim>
				</port>
			</output>
		</layer>
		<layer id="60" name="__module.model.model.23.cv3.2.1.1.act/aten::silu_/Swish_7" type="Swish" version="opset4">
			<input>
				<port id="0" precision="FP32">
					<dim>-1</dim>
					<dim>60</dim>
					<dim>-1</dim>
					<dim>-1</dim>
				</port>
			</input>
			<output>
				<port id="1" precision="FP32" names="4251,input.27">
					<dim>-1</dim>
					<dim>60</dim>
					<dim>-1</dim>
					<dim>-1</dim>
				</port>
			</output>
		</layer>
		<layer id="61" name="self.model.model.4.cv0.conv.weight_compressed" type="Const" version="opset1">
			<data element_type="f16" shape="30, 60, 1, 1" offset="85126" size="3600" />
			<output>
				<port id="0" precision="FP16" names="self.model.model.4.cv0.conv.weight">
					<dim>30</dim>
					<dim>60</dim>
					<dim>1</dim>
					<dim>1</dim>
				</port>
			</output>
		</layer>
		<layer id="62" name="self.model.model.4.cv0.conv.weight" type="Convert" version="opset1">
			<data destination_type="f32" />
			<rt_info>
				<attribute name="decompression" version="0" />
			</rt_info>
			<input>
				<port id="0" precision="FP16">
					<dim>30</dim>
					<dim>60</dim>
					<dim>1</dim>
					<dim>1</dim>
				</port>
			</input>
			<output>
				<port id="1" precision="FP32">
					<dim>30</dim>
					<dim>60</dim>
					<dim>1</dim>
					<dim>1</dim>
				</port>
			</output>
		</layer>
		<layer id="63" name="__module.model.model.4.cv0.conv/aten::_convolution/Convolution" type="Convolution" version="opset1">
			<data strides="1, 1" dilations="1, 1" pads_begin="0, 0" pads_end="0, 0" auto_pad="explicit" />
			<input>
				<port id="0" precision="FP32">
					<dim>-1</dim>
					<dim>60</dim>
					<dim>-1</dim>
					<dim>-1</dim>
				</port>
				<port id="1" precision="FP32">
					<dim>30</dim>
					<dim>60</dim>
					<dim>1</dim>
					<dim>1</dim>
				</port>
			</input>
			<output>
				<port id="2" precision="FP32">
					<dim>-1</dim>
					<dim>30</dim>
					<dim>-1</dim>
					<dim>-1</dim>
				</port>
			</output>
		</layer>
		<layer id="64" name="__module.model.model.4.cv0.conv/aten::_convolution/Reshape_compressed" type="Const" version="opset1">
			<data element_type="f16" shape="1, 30, 1, 1" offset="88726" size="60" />
			<output>
				<port id="0" precision="FP16">
					<dim>1</dim>
					<dim>30</dim>
					<dim>1</dim>
					<dim>1</dim>
				</port>
			</output>
		</layer>
		<layer id="65" name="__module.model.model.4.cv0.conv/aten::_convolution/Reshape" type="Convert" version="opset1">
			<data destination_type="f32" />
			<rt_info>
				<attribute name="decompression" version="0" />
			</rt_info>
			<input>
				<port id="0" precision="FP16">
					<dim>1</dim>
					<dim>30</dim>
					<dim>1</dim>
					<dim>1</dim>
				</port>
			</input>
			<output>
				<port id="1" precision="FP32">
					<dim>1</dim>
					<dim>30</dim>
					<dim>1</dim>
					<dim>1</dim>
				</port>
			</output>
		</layer>
		<layer id="66" name="__module.model.model.4.cv0.conv/aten::_convolution/Add" type="Add" version="opset1">
			<data auto_broadcast="numpy" />
			<input>
				<port id="0" precision="FP32">
					<dim>-1</dim>
					<dim>30</dim>
					<dim>-1</dim>
					<dim>-1</dim>
				</port>
				<port id="1" precision="FP32">
					<dim>1</dim>
					<dim>30</dim>
					<dim>1</dim>
					<dim>1</dim>
				</port>
			</input>
			<output>
				<port id="2" precision="FP32" names="4265_1">
					<dim>-1</dim>
					<dim>30</dim>
					<dim>-1</dim>
					<dim>-1</dim>
				</port>
			</output>
		</layer>
		<layer id="67" name="__module.model.model.23.cv3.2.1.1.act/aten::silu_/Swish_8" type="Swish" version="opset4">
			<input>
				<port id="0" precision="FP32">
					<dim>-1</dim>
					<dim>30</dim>
					<dim>-1</dim>
					<dim>-1</dim>
				</port>
			</input>
			<output>
				<port id="1" precision="FP32" names="4265,input.31">
					<dim>-1</dim>
					<dim>30</dim>
					<dim>-1</dim>
					<dim>-1</dim>
				</port>
			</output>
		</layer>
		<layer id="68" name="self.model.model.4.cv1.conv.weight_compressed" type="Const" version="opset1">
			<data element_type="f16" shape="30, 60, 1, 1" offset="88786" size="3600" />
			<output>
				<port id="0" precision="FP16" names="self.model.model.4.cv1.conv.weight">
					<dim>30</dim>
					<dim>60</dim>
					<dim>1</dim>
					<dim>1</dim>
				</port>
			</output>
		</layer>
		<layer id="69" name="self.model.model.4.cv1.conv.weight" type="Convert" version="opset1">
			<data destination_type="f32" />
			<rt_info>
				<attribute name="decompression" version="0" />
			</rt_info>
			<input>
				<port id="0" precision="FP16">
					<dim>30</dim>
					<dim>60</dim>
					<dim>1</dim>
					<dim>1</dim>
				</port>
			</input>
			<output>
				<port id="1" precision="FP32">
					<dim>30</dim>
					<dim>60</dim>
					<dim>1</dim>
					<dim>1</dim>
				</port>
			</output>
		</layer>
		<layer id="70" name="__module.model.model.4.cv1.conv/aten::_convolution/Convolution" type="Convolution" version="opset1">
			<data strides="1, 1" dilations="1, 1" pads_begin="0, 0" pads_end="0, 0" auto_pad="explicit" />
			<input>
				<port id="0" precision="FP32">
					<dim>-1</dim>
					<dim>60</dim>
					<dim>-1</dim>
					<dim>-1</dim>
				</port>
				<port id="1" precision="FP32">
					<dim>30</dim>
					<dim>60</dim>
					<dim>1</dim>
					<dim>1</dim>
				</port>
			</input>
			<output>
				<port id="2" precision="FP32">
					<dim>-1</dim>
					<dim>30</dim>
					<dim>-1</dim>
					<dim>-1</dim>
				</port>
			</output>
		</layer>
		<layer id="71" name="__module.model.model.4.cv1.conv/aten::_convolution/Reshape_compressed" type="Const" version="opset1">
			<data element_type="f16" shape="1, 30, 1, 1" offset="92386" size="60" />
			<output>
				<port id="0" precision="FP16">
					<dim>1</dim>
					<dim>30</dim>
					<dim>1</dim>
					<dim>1</dim>
				</port>
			</output>
		</layer>
		<layer id="72" name="__module.model.model.4.cv1.conv/aten::_convolution/Reshape" type="Convert" version="opset1">
			<data destination_type="f32" />
			<rt_info>
				<attribute name="decompression" version="0" />
			</rt_info>
			<input>
				<port id="0" precision="FP16">
					<dim>1</dim>
					<dim>30</dim>
					<dim>1</dim>
					<dim>1</dim>
				</port>
			</input>
			<output>
				<port id="1" precision="FP32">
					<dim>1</dim>
					<dim>30</dim>
					<dim>1</dim>
					<dim>1</dim>
				</port>
			</output>
		</layer>
		<layer id="73" name="__module.model.model.4.cv1.conv/aten::_convolution/Add" type="Add" version="opset1">
			<data auto_broadcast="numpy" />
			<input>
				<port id="0" precision="FP32">
					<dim>-1</dim>
					<dim>30</dim>
					<dim>-1</dim>
					<dim>-1</dim>
				</port>
				<port id="1" precision="FP32">
					<dim>1</dim>
					<dim>30</dim>
					<dim>1</dim>
					<dim>1</dim>
				</port>
			</input>
			<output>
				<port id="2" precision="FP32" names="4274_1">
					<dim>-1</dim>
					<dim>30</dim>
					<dim>-1</dim>
					<dim>-1</dim>
				</port>
			</output>
		</layer>
		<layer id="74" name="__module.model.model.23.cv3.2.1.1.act/aten::silu_/Swish_9" type="Swish" version="opset4">
			<input>
				<port id="0" precision="FP32">
					<dim>-1</dim>
					<dim>30</dim>
					<dim>-1</dim>
					<dim>-1</dim>
				</port>
			</input>
			<output>
				<port id="1" precision="FP32" names="4274,input.33">
					<dim>-1</dim>
					<dim>30</dim>
					<dim>-1</dim>
					<dim>-1</dim>
				</port>
			</output>
		</layer>
		<layer id="75" name="self.model.model.4.m.0.cv1.conv.weight_compressed" type="Const" version="opset1">
			<data element_type="f16" shape="15, 30, 3, 3" offset="92446" size="8100" />
			<output>
				<port id="0" precision="FP16" names="self.model.model.4.m.0.cv1.conv.weight">
					<dim>15</dim>
					<dim>30</dim>
					<dim>3</dim>
					<dim>3</dim>
				</port>
			</output>
		</layer>
		<layer id="76" name="self.model.model.4.m.0.cv1.conv.weight" type="Convert" version="opset1">
			<data destination_type="f32" />
			<rt_info>
				<attribute name="decompression" version="0" />
			</rt_info>
			<input>
				<port id="0" precision="FP16">
					<dim>15</dim>
					<dim>30</dim>
					<dim>3</dim>
					<dim>3</dim>
				</port>
			</input>
			<output>
				<port id="1" precision="FP32">
					<dim>15</dim>
					<dim>30</dim>
					<dim>3</dim>
					<dim>3</dim>
				</port>
			</output>
		</layer>
		<layer id="77" name="__module.model.model.4.m.0.cv1.conv/aten::_convolution/Convolution" type="Convolution" version="opset1">
			<data strides="1, 1" dilations="1, 1" pads_begin="1, 1" pads_end="1, 1" auto_pad="explicit" />
			<input>
				<port id="0" precision="FP32">
					<dim>-1</dim>
					<dim>30</dim>
					<dim>-1</dim>
					<dim>-1</dim>
				</port>
				<port id="1" precision="FP32">
					<dim>15</dim>
					<dim>30</dim>
					<dim>3</dim>
					<dim>3</dim>
				</port>
			</input>
			<output>
				<port id="2" precision="FP32">
					<dim>-1</dim>
					<dim>15</dim>
					<dim>-1</dim>
					<dim>-1</dim>
				</port>
			</output>
		</layer>
		<layer id="78" name="__module.model.model.4.m.0.cv1.conv/aten::_convolution/Reshape_compressed" type="Const" version="opset1">
			<data element_type="f16" shape="1, 15, 1, 1" offset="100546" size="30" />
			<output>
				<port id="0" precision="FP16">
					<dim>1</dim>
					<dim>15</dim>
					<dim>1</dim>
					<dim>1</dim>
				</port>
			</output>
		</layer>
		<layer id="79" name="__module.model.model.4.m.0.cv1.conv/aten::_convolution/Reshape" type="Convert" version="opset1">
			<data destination_type="f32" />
			<rt_info>
				<attribute name="decompression" version="0" />
			</rt_info>
			<input>
				<port id="0" precision="FP16">
					<dim>1</dim>
					<dim>15</dim>
					<dim>1</dim>
					<dim>1</dim>
				</port>
			</input>
			<output>
				<port id="1" precision="FP32">
					<dim>1</dim>
					<dim>15</dim>
					<dim>1</dim>
					<dim>1</dim>
				</port>
			</output>
		</layer>
		<layer id="80" name="__module.model.model.4.m.0.cv1.conv/aten::_convolution/Add" type="Add" version="opset1">
			<data auto_broadcast="numpy" />
			<input>
				<port id="0" precision="FP32">
					<dim>-1</dim>
					<dim>15</dim>
					<dim>-1</dim>
					<dim>-1</dim>
				</port>
				<port id="1" precision="FP32">
					<dim>1</dim>
					<dim>15</dim>
					<dim>1</dim>
					<dim>1</dim>
				</port>
			</input>
			<output>
				<port id="2" precision="FP32" names="4285_1">
					<dim>-1</dim>
					<dim>15</dim>
					<dim>-1</dim>
					<dim>-1</dim>
				</port>
			</output>
		</layer>
		<layer id="81" name="__module.model.model.23.cv3.2.1.1.act/aten::silu_/Swish_10" type="Swish" version="opset4">
			<input>
				<port id="0" precision="FP32">
					<dim>-1</dim>
					<dim>15</dim>
					<dim>-1</dim>
					<dim>-1</dim>
				</port>
			</input>
			<output>
				<port id="1" precision="FP32" names="4285,input.37">
					<dim>-1</dim>
					<dim>15</dim>
					<dim>-1</dim>
					<dim>-1</dim>
				</port>
			</output>
		</layer>
		<layer id="82" name="self.model.model.4.m.0.cv2.conv.weight_compressed" type="Const" version="opset1">
			<data element_type="f16" shape="30, 15, 3, 3" offset="100576" size="8100" />
			<output>
				<port id="0" precision="FP16" names="self.model.model.4.m.0.cv2.conv.weight">
					<dim>30</dim>
					<dim>15</dim>
					<dim>3</dim>
					<dim>3</dim>
				</port>
			</output>
		</layer>
		<layer id="83" name="self.model.model.4.m.0.cv2.conv.weight" type="Convert" version="opset1">
			<data destination_type="f32" />
			<rt_info>
				<attribute name="decompression" version="0" />
			</rt_info>
			<input>
				<port id="0" precision="FP16">
					<dim>30</dim>
					<dim>15</dim>
					<dim>3</dim>
					<dim>3</dim>
				</port>
			</input>
			<output>
				<port id="1" precision="FP32">
					<dim>30</dim>
					<dim>15</dim>
					<dim>3</dim>
					<dim>3</dim>
				</port>
			</output>
		</layer>
		<layer id="84" name="__module.model.model.4.m.0.cv2.conv/aten::_convolution/Convolution" type="Convolution" version="opset1">
			<data strides="1, 1" dilations="1, 1" pads_begin="1, 1" pads_end="1, 1" auto_pad="explicit" />
			<input>
				<port id="0" precision="FP32">
					<dim>-1</dim>
					<dim>15</dim>
					<dim>-1</dim>
					<dim>-1</dim>
				</port>
				<port id="1" precision="FP32">
					<dim>30</dim>
					<dim>15</dim>
					<dim>3</dim>
					<dim>3</dim>
				</port>
			</input>
			<output>
				<port id="2" precision="FP32">
					<dim>-1</dim>
					<dim>30</dim>
					<dim>-1</dim>
					<dim>-1</dim>
				</port>
			</output>
		</layer>
		<layer id="85" name="__module.model.model.4.m.0.cv2.conv/aten::_convolution/Reshape_compressed" type="Const" version="opset1">
			<data element_type="f16" shape="1, 30, 1, 1" offset="108676" size="60" />
			<output>
				<port id="0" precision="FP16">
					<dim>1</dim>
					<dim>30</dim>
					<dim>1</dim>
					<dim>1</dim>
				</port>
			</output>
		</layer>
		<layer id="86" name="__module.model.model.4.m.0.cv2.conv/aten::_convolution/Reshape" type="Convert" version="opset1">
			<data destination_type="f32" />
			<rt_info>
				<attribute name="decompression" version="0" />
			</rt_info>
			<input>
				<port id="0" precision="FP16">
					<dim>1</dim>
					<dim>30</dim>
					<dim>1</dim>
					<dim>1</dim>
				</port>
			</input>
			<output>
				<port id="1" precision="FP32">
					<dim>1</dim>
					<dim>30</dim>
					<dim>1</dim>
					<dim>1</dim>
				</port>
			</output>
		</layer>
		<layer id="87" name="__module.model.model.4.m.0.cv2.conv/aten::_convolution/Add" type="Add" version="opset1">
			<data auto_broadcast="numpy" />
			<input>
				<port id="0" precision="FP32">
					<dim>-1</dim>
					<dim>30</dim>
					<dim>-1</dim>
					<dim>-1</dim>
				</port>
				<port id="1" precision="FP32">
					<dim>1</dim>
					<dim>30</dim>
					<dim>1</dim>
					<dim>1</dim>
				</port>
			</input>
			<output>
				<port id="2" precision="FP32" names="4294_1">
					<dim>-1</dim>
					<dim>30</dim>
					<dim>-1</dim>
					<dim>-1</dim>
				</port>
			</output>
		</layer>
		<layer id="88" name="__module.model.model.23.cv3.2.1.1.act/aten::silu_/Swish_11" type="Swish" version="opset4">
			<input>
				<port id="0" precision="FP32">
					<dim>-1</dim>
					<dim>30</dim>
					<dim>-1</dim>
					<dim>-1</dim>
				</port>
			</input>
			<output>
				<port id="1" precision="FP32" names="4294,input.41">
					<dim>-1</dim>
					<dim>30</dim>
					<dim>-1</dim>
					<dim>-1</dim>
				</port>
			</output>
		</layer>
		<layer id="89" name="__module.model.model.4.m.0/aten::add/Add" type="Add" version="opset1">
			<data auto_broadcast="numpy" />
			<input>
				<port id="0" precision="FP32">
					<dim>-1</dim>
					<dim>30</dim>
					<dim>-1</dim>
					<dim>-1</dim>
				</port>
				<port id="1" precision="FP32">
					<dim>-1</dim>
					<dim>30</dim>
					<dim>-1</dim>
					<dim>-1</dim>
				</port>
			</input>
			<output>
				<port id="2" precision="FP32" names="4296">
					<dim>-1</dim>
					<dim>30</dim>
					<dim>-1</dim>
					<dim>-1</dim>
				</port>
			</output>
		</layer>
		<layer id="90" name="__module.model.model.4/aten::cat/Concat" type="Concat" version="opset1">
			<data axis="1" />
			<input>
				<port id="0" precision="FP32">
					<dim>-1</dim>
					<dim>30</dim>
					<dim>-1</dim>
					<dim>-1</dim>
				</port>
				<port id="1" precision="FP32">
					<dim>-1</dim>
					<dim>30</dim>
					<dim>-1</dim>
					<dim>-1</dim>
				</port>
				<port id="2" precision="FP32">
					<dim>-1</dim>
					<dim>30</dim>
					<dim>-1</dim>
					<dim>-1</dim>
				</port>
			</input>
			<output>
				<port id="3" precision="FP32" names="4298,input.43">
					<dim>-1</dim>
					<dim>90</dim>
					<dim>-1</dim>
					<dim>-1</dim>
				</port>
			</output>
		</layer>
		<layer id="91" name="self.model.model.4.cv2.conv.weight_compressed" type="Const" version="opset1">
			<data element_type="f16" shape="121, 90, 1, 1" offset="108736" size="21780" />
			<output>
				<port id="0" precision="FP16" names="self.model.model.4.cv2.conv.weight">
					<dim>121</dim>
					<dim>90</dim>
					<dim>1</dim>
					<dim>1</dim>
				</port>
			</output>
		</layer>
		<layer id="92" name="self.model.model.4.cv2.conv.weight" type="Convert" version="opset1">
			<data destination_type="f32" />
			<rt_info>
				<attribute name="decompression" version="0" />
			</rt_info>
			<input>
				<port id="0" precision="FP16">
					<dim>121</dim>
					<dim>90</dim>
					<dim>1</dim>
					<dim>1</dim>
				</port>
			</input>
			<output>
				<port id="1" precision="FP32">
					<dim>121</dim>
					<dim>90</dim>
					<dim>1</dim>
					<dim>1</dim>
				</port>
			</output>
		</layer>
		<layer id="93" name="__module.model.model.4.cv2.conv/aten::_convolution/Convolution" type="Convolution" version="opset1">
			<data strides="1, 1" dilations="1, 1" pads_begin="0, 0" pads_end="0, 0" auto_pad="explicit" />
			<input>
				<port id="0" precision="FP32">
					<dim>-1</dim>
					<dim>90</dim>
					<dim>-1</dim>
					<dim>-1</dim>
				</port>
				<port id="1" precision="FP32">
					<dim>121</dim>
					<dim>90</dim>
					<dim>1</dim>
					<dim>1</dim>
				</port>
			</input>
			<output>
				<port id="2" precision="FP32">
					<dim>-1</dim>
					<dim>121</dim>
					<dim>-1</dim>
					<dim>-1</dim>
				</port>
			</output>
		</layer>
		<layer id="94" name="__module.model.model.4.cv2.conv/aten::_convolution/Reshape_compressed" type="Const" version="opset1">
			<data element_type="f16" shape="1, 121, 1, 1" offset="130516" size="242" />
			<output>
				<port id="0" precision="FP16">
					<dim>1</dim>
					<dim>121</dim>
					<dim>1</dim>
					<dim>1</dim>
				</port>
			</output>
		</layer>
		<layer id="95" name="__module.model.model.4.cv2.conv/aten::_convolution/Reshape" type="Convert" version="opset1">
			<data destination_type="f32" />
			<rt_info>
				<attribute name="decompression" version="0" />
			</rt_info>
			<input>
				<port id="0" precision="FP16">
					<dim>1</dim>
					<dim>121</dim>
					<dim>1</dim>
					<dim>1</dim>
				</port>
			</input>
			<output>
				<port id="1" precision="FP32">
					<dim>1</dim>
					<dim>121</dim>
					<dim>1</dim>
					<dim>1</dim>
				</port>
			</output>
		</layer>
		<layer id="96" name="__module.model.model.4.cv2.conv/aten::_convolution/Add" type="Add" version="opset1">
			<data auto_broadcast="numpy" />
			<input>
				<port id="0" precision="FP32">
					<dim>-1</dim>
					<dim>121</dim>
					<dim>-1</dim>
					<dim>-1</dim>
				</port>
				<port id="1" precision="FP32">
					<dim>1</dim>
					<dim>121</dim>
					<dim>1</dim>
					<dim>1</dim>
				</port>
			</input>
			<output>
				<port id="2" precision="FP32" names="4306_1">
					<dim>-1</dim>
					<dim>121</dim>
					<dim>-1</dim>
					<dim>-1</dim>
				</port>
			</output>
		</layer>
		<layer id="97" name="__module.model.model.23.cv3.2.1.1.act/aten::silu_/Swish_12" type="Swish" version="opset4">
			<input>
				<port id="0" precision="FP32">
					<dim>-1</dim>
					<dim>121</dim>
					<dim>-1</dim>
					<dim>-1</dim>
				</port>
			</input>
			<output>
				<port id="1" precision="FP32" names="4306,input.45">
					<dim>-1</dim>
					<dim>121</dim>
					<dim>-1</dim>
					<dim>-1</dim>
				</port>
			</output>
		</layer>
		<layer id="98" name="self.model.model.5.conv.weight_compressed" type="Const" version="opset1">
			<data element_type="f16" shape="121, 121, 3, 3" offset="130758" size="263538" />
			<output>
				<port id="0" precision="FP16" names="self.model.model.5.conv.weight">
					<dim>121</dim>
					<dim>121</dim>
					<dim>3</dim>
					<dim>3</dim>
				</port>
			</output>
		</layer>
		<layer id="99" name="self.model.model.5.conv.weight" type="Convert" version="opset1">
			<data destination_type="f32" />
			<rt_info>
				<attribute name="decompression" version="0" />
			</rt_info>
			<input>
				<port id="0" precision="FP16">
					<dim>121</dim>
					<dim>121</dim>
					<dim>3</dim>
					<dim>3</dim>
				</port>
			</input>
			<output>
				<port id="1" precision="FP32">
					<dim>121</dim>
					<dim>121</dim>
					<dim>3</dim>
					<dim>3</dim>
				</port>
			</output>
		</layer>
		<layer id="100" name="__module.model.model.5.conv/aten::_convolution/Convolution" type="Convolution" version="opset1">
			<data strides="2, 2" dilations="1, 1" pads_begin="1, 1" pads_end="1, 1" auto_pad="explicit" />
			<input>
				<port id="0" precision="FP32">
					<dim>-1</dim>
					<dim>121</dim>
					<dim>-1</dim>
					<dim>-1</dim>
				</port>
				<port id="1" precision="FP32">
					<dim>121</dim>
					<dim>121</dim>
					<dim>3</dim>
					<dim>3</dim>
				</port>
			</input>
			<output>
				<port id="2" precision="FP32">
					<dim>-1</dim>
					<dim>121</dim>
					<dim>-1</dim>
					<dim>-1</dim>
				</port>
			</output>
		</layer>
		<layer id="101" name="__module.model.model.5.conv/aten::_convolution/Reshape_compressed" type="Const" version="opset1">
			<data element_type="f16" shape="1, 121, 1, 1" offset="394296" size="242" />
			<output>
				<port id="0" precision="FP16">
					<dim>1</dim>
					<dim>121</dim>
					<dim>1</dim>
					<dim>1</dim>
				</port>
			</output>
		</layer>
		<layer id="102" name="__module.model.model.5.conv/aten::_convolution/Reshape" type="Convert" version="opset1">
			<data destination_type="f32" />
			<rt_info>
				<attribute name="decompression" version="0" />
			</rt_info>
			<input>
				<port id="0" precision="FP16">
					<dim>1</dim>
					<dim>121</dim>
					<dim>1</dim>
					<dim>1</dim>
				</port>
			</input>
			<output>
				<port id="1" precision="FP32">
					<dim>1</dim>
					<dim>121</dim>
					<dim>1</dim>
					<dim>1</dim>
				</port>
			</output>
		</layer>
		<layer id="103" name="__module.model.model.5.conv/aten::_convolution/Add" type="Add" version="opset1">
			<data auto_broadcast="numpy" />
			<input>
				<port id="0" precision="FP32">
					<dim>-1</dim>
					<dim>121</dim>
					<dim>-1</dim>
					<dim>-1</dim>
				</port>
				<port id="1" precision="FP32">
					<dim>1</dim>
					<dim>121</dim>
					<dim>1</dim>
					<dim>1</dim>
				</port>
			</input>
			<output>
				<port id="2" precision="FP32" names="4315_1">
					<dim>-1</dim>
					<dim>121</dim>
					<dim>-1</dim>
					<dim>-1</dim>
				</port>
			</output>
		</layer>
		<layer id="104" name="__module.model.model.23.cv3.2.1.1.act/aten::silu_/Swish_13" type="Swish" version="opset4">
			<input>
				<port id="0" precision="FP32">
					<dim>-1</dim>
					<dim>121</dim>
					<dim>-1</dim>
					<dim>-1</dim>
				</port>
			</input>
			<output>
				<port id="1" precision="FP32" names="4315,input.49">
					<dim>-1</dim>
					<dim>121</dim>
					<dim>-1</dim>
					<dim>-1</dim>
				</port>
			</output>
		</layer>
		<layer id="105" name="self.model.model.6.cv0.conv.weight_compressed" type="Const" version="opset1">
			<data element_type="f16" shape="60, 121, 1, 1" offset="394538" size="14520" />
			<output>
				<port id="0" precision="FP16" names="self.model.model.6.cv0.conv.weight">
					<dim>60</dim>
					<dim>121</dim>
					<dim>1</dim>
					<dim>1</dim>
				</port>
			</output>
		</layer>
		<layer id="106" name="self.model.model.6.cv0.conv.weight" type="Convert" version="opset1">
			<data destination_type="f32" />
			<rt_info>
				<attribute name="decompression" version="0" />
			</rt_info>
			<input>
				<port id="0" precision="FP16">
					<dim>60</dim>
					<dim>121</dim>
					<dim>1</dim>
					<dim>1</dim>
				</port>
			</input>
			<output>
				<port id="1" precision="FP32">
					<dim>60</dim>
					<dim>121</dim>
					<dim>1</dim>
					<dim>1</dim>
				</port>
			</output>
		</layer>
		<layer id="107" name="__module.model.model.6.cv0.conv/aten::_convolution/Convolution" type="Convolution" version="opset1">
			<data strides="1, 1" dilations="1, 1" pads_begin="0, 0" pads_end="0, 0" auto_pad="explicit" />
			<input>
				<port id="0" precision="FP32">
					<dim>-1</dim>
					<dim>121</dim>
					<dim>-1</dim>
					<dim>-1</dim>
				</port>
				<port id="1" precision="FP32">
					<dim>60</dim>
					<dim>121</dim>
					<dim>1</dim>
					<dim>1</dim>
				</port>
			</input>
			<output>
				<port id="2" precision="FP32">
					<dim>-1</dim>
					<dim>60</dim>
					<dim>-1</dim>
					<dim>-1</dim>
				</port>
			</output>
		</layer>
		<layer id="108" name="__module.model.model.6.cv0.conv/aten::_convolution/Reshape_compressed" type="Const" version="opset1">
			<data element_type="f16" shape="1, 60, 1, 1" offset="409058" size="120" />
			<output>
				<port id="0" precision="FP16">
					<dim>1</dim>
					<dim>60</dim>
					<dim>1</dim>
					<dim>1</dim>
				</port>
			</output>
		</layer>
		<layer id="109" name="__module.model.model.6.cv0.conv/aten::_convolution/Reshape" type="Convert" version="opset1">
			<data destination_type="f32" />
			<rt_info>
				<attribute name="decompression" version="0" />
			</rt_info>
			<input>
				<port id="0" precision="FP16">
					<dim>1</dim>
					<dim>60</dim>
					<dim>1</dim>
					<dim>1</dim>
				</port>
			</input>
			<output>
				<port id="1" precision="FP32">
					<dim>1</dim>
					<dim>60</dim>
					<dim>1</dim>
					<dim>1</dim>
				</port>
			</output>
		</layer>
		<layer id="110" name="__module.model.model.6.cv0.conv/aten::_convolution/Add" type="Add" version="opset1">
			<data auto_broadcast="numpy" />
			<input>
				<port id="0" precision="FP32">
					<dim>-1</dim>
					<dim>60</dim>
					<dim>-1</dim>
					<dim>-1</dim>
				</port>
				<port id="1" precision="FP32">
					<dim>1</dim>
					<dim>60</dim>
					<dim>1</dim>
					<dim>1</dim>
				</port>
			</input>
			<output>
				<port id="2" precision="FP32" names="4329_1">
					<dim>-1</dim>
					<dim>60</dim>
					<dim>-1</dim>
					<dim>-1</dim>
				</port>
			</output>
		</layer>
		<layer id="111" name="__module.model.model.23.cv3.2.1.1.act/aten::silu_/Swish_14" type="Swish" version="opset4">
			<input>
				<port id="0" precision="FP32">
					<dim>-1</dim>
					<dim>60</dim>
					<dim>-1</dim>
					<dim>-1</dim>
				</port>
			</input>
			<output>
				<port id="1" precision="FP32" names="4329,input.53">
					<dim>-1</dim>
					<dim>60</dim>
					<dim>-1</dim>
					<dim>-1</dim>
				</port>
			</output>
		</layer>
		<layer id="112" name="self.model.model.6.cv1.conv.weight_compressed" type="Const" version="opset1">
			<data element_type="f16" shape="60, 121, 1, 1" offset="409178" size="14520" />
			<output>
				<port id="0" precision="FP16" names="self.model.model.6.cv1.conv.weight">
					<dim>60</dim>
					<dim>121</dim>
					<dim>1</dim>
					<dim>1</dim>
				</port>
			</output>
		</layer>
		<layer id="113" name="self.model.model.6.cv1.conv.weight" type="Convert" version="opset1">
			<data destination_type="f32" />
			<rt_info>
				<attribute name="decompression" version="0" />
			</rt_info>
			<input>
				<port id="0" precision="FP16">
					<dim>60</dim>
					<dim>121</dim>
					<dim>1</dim>
					<dim>1</dim>
				</port>
			</input>
			<output>
				<port id="1" precision="FP32">
					<dim>60</dim>
					<dim>121</dim>
					<dim>1</dim>
					<dim>1</dim>
				</port>
			</output>
		</layer>
		<layer id="114" name="__module.model.model.6.cv1.conv/aten::_convolution/Convolution" type="Convolution" version="opset1">
			<data strides="1, 1" dilations="1, 1" pads_begin="0, 0" pads_end="0, 0" auto_pad="explicit" />
			<input>
				<port id="0" precision="FP32">
					<dim>-1</dim>
					<dim>121</dim>
					<dim>-1</dim>
					<dim>-1</dim>
				</port>
				<port id="1" precision="FP32">
					<dim>60</dim>
					<dim>121</dim>
					<dim>1</dim>
					<dim>1</dim>
				</port>
			</input>
			<output>
				<port id="2" precision="FP32">
					<dim>-1</dim>
					<dim>60</dim>
					<dim>-1</dim>
					<dim>-1</dim>
				</port>
			</output>
		</layer>
		<layer id="115" name="__module.model.model.6.cv1.conv/aten::_convolution/Reshape_compressed" type="Const" version="opset1">
			<data element_type="f16" shape="1, 60, 1, 1" offset="423698" size="120" />
			<output>
				<port id="0" precision="FP16">
					<dim>1</dim>
					<dim>60</dim>
					<dim>1</dim>
					<dim>1</dim>
				</port>
			</output>
		</layer>
		<layer id="116" name="__module.model.model.6.cv1.conv/aten::_convolution/Reshape" type="Convert" version="opset1">
			<data destination_type="f32" />
			<rt_info>
				<attribute name="decompression" version="0" />
			</rt_info>
			<input>
				<port id="0" precision="FP16">
					<dim>1</dim>
					<dim>60</dim>
					<dim>1</dim>
					<dim>1</dim>
				</port>
			</input>
			<output>
				<port id="1" precision="FP32">
					<dim>1</dim>
					<dim>60</dim>
					<dim>1</dim>
					<dim>1</dim>
				</port>
			</output>
		</layer>
		<layer id="117" name="__module.model.model.6.cv1.conv/aten::_convolution/Add" type="Add" version="opset1">
			<data auto_broadcast="numpy" />
			<input>
				<port id="0" precision="FP32">
					<dim>-1</dim>
					<dim>60</dim>
					<dim>-1</dim>
					<dim>-1</dim>
				</port>
				<port id="1" precision="FP32">
					<dim>1</dim>
					<dim>60</dim>
					<dim>1</dim>
					<dim>1</dim>
				</port>
			</input>
			<output>
				<port id="2" precision="FP32" names="4338_1">
					<dim>-1</dim>
					<dim>60</dim>
					<dim>-1</dim>
					<dim>-1</dim>
				</port>
			</output>
		</layer>
		<layer id="118" name="__module.model.model.23.cv3.2.1.1.act/aten::silu_/Swish_15" type="Swish" version="opset4">
			<input>
				<port id="0" precision="FP32">
					<dim>-1</dim>
					<dim>60</dim>
					<dim>-1</dim>
					<dim>-1</dim>
				</port>
			</input>
			<output>
				<port id="1" precision="FP32" names="4338,input.55">
					<dim>-1</dim>
					<dim>60</dim>
					<dim>-1</dim>
					<dim>-1</dim>
				</port>
			</output>
		</layer>
		<layer id="119" name="self.model.model.6.m.0.cv1.conv.weight_compressed" type="Const" version="opset1">
			<data element_type="f16" shape="30, 60, 1, 1" offset="423818" size="3600" />
			<output>
				<port id="0" precision="FP16" names="self.model.model.6.m.0.cv1.conv.weight">
					<dim>30</dim>
					<dim>60</dim>
					<dim>1</dim>
					<dim>1</dim>
				</port>
			</output>
		</layer>
		<layer id="120" name="self.model.model.6.m.0.cv1.conv.weight" type="Convert" version="opset1">
			<data destination_type="f32" />
			<rt_info>
				<attribute name="decompression" version="0" />
			</rt_info>
			<input>
				<port id="0" precision="FP16">
					<dim>30</dim>
					<dim>60</dim>
					<dim>1</dim>
					<dim>1</dim>
				</port>
			</input>
			<output>
				<port id="1" precision="FP32">
					<dim>30</dim>
					<dim>60</dim>
					<dim>1</dim>
					<dim>1</dim>
				</port>
			</output>
		</layer>
		<layer id="121" name="__module.model.model.6.m.0.cv1.conv/aten::_convolution/Convolution" type="Convolution" version="opset1">
			<data strides="1, 1" dilations="1, 1" pads_begin="0, 0" pads_end="0, 0" auto_pad="explicit" />
			<input>
				<port id="0" precision="FP32">
					<dim>-1</dim>
					<dim>60</dim>
					<dim>-1</dim>
					<dim>-1</dim>
				</port>
				<port id="1" precision="FP32">
					<dim>30</dim>
					<dim>60</dim>
					<dim>1</dim>
					<dim>1</dim>
				</port>
			</input>
			<output>
				<port id="2" precision="FP32">
					<dim>-1</dim>
					<dim>30</dim>
					<dim>-1</dim>
					<dim>-1</dim>
				</port>
			</output>
		</layer>
		<layer id="122" name="__module.model.model.6.m.0.cv1.conv/aten::_convolution/Reshape_compressed" type="Const" version="opset1">
			<data element_type="f16" shape="1, 30, 1, 1" offset="427418" size="60" />
			<output>
				<port id="0" precision="FP16">
					<dim>1</dim>
					<dim>30</dim>
					<dim>1</dim>
					<dim>1</dim>
				</port>
			</output>
		</layer>
		<layer id="123" name="__module.model.model.6.m.0.cv1.conv/aten::_convolution/Reshape" type="Convert" version="opset1">
			<data destination_type="f32" />
			<rt_info>
				<attribute name="decompression" version="0" />
			</rt_info>
			<input>
				<port id="0" precision="FP16">
					<dim>1</dim>
					<dim>30</dim>
					<dim>1</dim>
					<dim>1</dim>
				</port>
			</input>
			<output>
				<port id="1" precision="FP32">
					<dim>1</dim>
					<dim>30</dim>
					<dim>1</dim>
					<dim>1</dim>
				</port>
			</output>
		</layer>
		<layer id="124" name="__module.model.model.6.m.0.cv1.conv/aten::_convolution/Add" type="Add" version="opset1">
			<data auto_broadcast="numpy" />
			<input>
				<port id="0" precision="FP32">
					<dim>-1</dim>
					<dim>30</dim>
					<dim>-1</dim>
					<dim>-1</dim>
				</port>
				<port id="1" precision="FP32">
					<dim>1</dim>
					<dim>30</dim>
					<dim>1</dim>
					<dim>1</dim>
				</port>
			</input>
			<output>
				<port id="2" precision="FP32" names="4351_1">
					<dim>-1</dim>
					<dim>30</dim>
					<dim>-1</dim>
					<dim>-1</dim>
				</port>
			</output>
		</layer>
		<layer id="125" name="__module.model.model.23.cv3.2.1.1.act/aten::silu_/Swish_16" type="Swish" version="opset4">
			<input>
				<port id="0" precision="FP32">
					<dim>-1</dim>
					<dim>30</dim>
					<dim>-1</dim>
					<dim>-1</dim>
				</port>
			</input>
			<output>
				<port id="1" precision="FP32" names="4351,input.59">
					<dim>-1</dim>
					<dim>30</dim>
					<dim>-1</dim>
					<dim>-1</dim>
				</port>
			</output>
		</layer>
		<layer id="126" name="self.model.model.6.m.0.m.0.cv1.conv.weight_compressed" type="Const" version="opset1">
			<data element_type="f16" shape="30, 30, 3, 3" offset="427478" size="16200" />
			<output>
				<port id="0" precision="FP16" names="self.model.model.6.m.0.m.0.cv1.conv.weight">
					<dim>30</dim>
					<dim>30</dim>
					<dim>3</dim>
					<dim>3</dim>
				</port>
			</output>
		</layer>
		<layer id="127" name="self.model.model.6.m.0.m.0.cv1.conv.weight" type="Convert" version="opset1">
			<data destination_type="f32" />
			<rt_info>
				<attribute name="decompression" version="0" />
			</rt_info>
			<input>
				<port id="0" precision="FP16">
					<dim>30</dim>
					<dim>30</dim>
					<dim>3</dim>
					<dim>3</dim>
				</port>
			</input>
			<output>
				<port id="1" precision="FP32">
					<dim>30</dim>
					<dim>30</dim>
					<dim>3</dim>
					<dim>3</dim>
				</port>
			</output>
		</layer>
		<layer id="128" name="__module.model.model.6.m.0.m.0.cv1.conv/aten::_convolution/Convolution" type="Convolution" version="opset1">
			<data strides="1, 1" dilations="1, 1" pads_begin="1, 1" pads_end="1, 1" auto_pad="explicit" />
			<input>
				<port id="0" precision="FP32">
					<dim>-1</dim>
					<dim>30</dim>
					<dim>-1</dim>
					<dim>-1</dim>
				</port>
				<port id="1" precision="FP32">
					<dim>30</dim>
					<dim>30</dim>
					<dim>3</dim>
					<dim>3</dim>
				</port>
			</input>
			<output>
				<port id="2" precision="FP32">
					<dim>-1</dim>
					<dim>30</dim>
					<dim>-1</dim>
					<dim>-1</dim>
				</port>
			</output>
		</layer>
		<layer id="129" name="__module.model.model.6.m.0.m.0.cv1.conv/aten::_convolution/Reshape_compressed" type="Const" version="opset1">
			<data element_type="f16" shape="1, 30, 1, 1" offset="443678" size="60" />
			<output>
				<port id="0" precision="FP16">
					<dim>1</dim>
					<dim>30</dim>
					<dim>1</dim>
					<dim>1</dim>
				</port>
			</output>
		</layer>
		<layer id="130" name="__module.model.model.6.m.0.m.0.cv1.conv/aten::_convolution/Reshape" type="Convert" version="opset1">
			<data destination_type="f32" />
			<rt_info>
				<attribute name="decompression" version="0" />
			</rt_info>
			<input>
				<port id="0" precision="FP16">
					<dim>1</dim>
					<dim>30</dim>
					<dim>1</dim>
					<dim>1</dim>
				</port>
			</input>
			<output>
				<port id="1" precision="FP32">
					<dim>1</dim>
					<dim>30</dim>
					<dim>1</dim>
					<dim>1</dim>
				</port>
			</output>
		</layer>
		<layer id="131" name="__module.model.model.6.m.0.m.0.cv1.conv/aten::_convolution/Add" type="Add" version="opset1">
			<data auto_broadcast="numpy" />
			<input>
				<port id="0" precision="FP32">
					<dim>-1</dim>
					<dim>30</dim>
					<dim>-1</dim>
					<dim>-1</dim>
				</port>
				<port id="1" precision="FP32">
					<dim>1</dim>
					<dim>30</dim>
					<dim>1</dim>
					<dim>1</dim>
				</port>
			</input>
			<output>
				<port id="2" precision="FP32" names="4364_1">
					<dim>-1</dim>
					<dim>30</dim>
					<dim>-1</dim>
					<dim>-1</dim>
				</port>
			</output>
		</layer>
		<layer id="132" name="__module.model.model.23.cv3.2.1.1.act/aten::silu_/Swish_17" type="Swish" version="opset4">
			<input>
				<port id="0" precision="FP32">
					<dim>-1</dim>
					<dim>30</dim>
					<dim>-1</dim>
					<dim>-1</dim>
				</port>
			</input>
			<output>
				<port id="1" precision="FP32" names="4364,input.63">
					<dim>-1</dim>
					<dim>30</dim>
					<dim>-1</dim>
					<dim>-1</dim>
				</port>
			</output>
		</layer>
		<layer id="133" name="self.model.model.6.m.0.m.0.cv2.conv.weight_compressed" type="Const" version="opset1">
			<data element_type="f16" shape="30, 30, 3, 3" offset="443738" size="16200" />
			<output>
				<port id="0" precision="FP16" names="self.model.model.6.m.0.m.0.cv2.conv.weight">
					<dim>30</dim>
					<dim>30</dim>
					<dim>3</dim>
					<dim>3</dim>
				</port>
			</output>
		</layer>
		<layer id="134" name="self.model.model.6.m.0.m.0.cv2.conv.weight" type="Convert" version="opset1">
			<data destination_type="f32" />
			<rt_info>
				<attribute name="decompression" version="0" />
			</rt_info>
			<input>
				<port id="0" precision="FP16">
					<dim>30</dim>
					<dim>30</dim>
					<dim>3</dim>
					<dim>3</dim>
				</port>
			</input>
			<output>
				<port id="1" precision="FP32">
					<dim>30</dim>
					<dim>30</dim>
					<dim>3</dim>
					<dim>3</dim>
				</port>
			</output>
		</layer>
		<layer id="135" name="__module.model.model.6.m.0.m.0.cv2.conv/aten::_convolution/Convolution" type="Convolution" version="opset1">
			<data strides="1, 1" dilations="1, 1" pads_begin="1, 1" pads_end="1, 1" auto_pad="explicit" />
			<input>
				<port id="0" precision="FP32">
					<dim>-1</dim>
					<dim>30</dim>
					<dim>-1</dim>
					<dim>-1</dim>
				</port>
				<port id="1" precision="FP32">
					<dim>30</dim>
					<dim>30</dim>
					<dim>3</dim>
					<dim>3</dim>
				</port>
			</input>
			<output>
				<port id="2" precision="FP32">
					<dim>-1</dim>
					<dim>30</dim>
					<dim>-1</dim>
					<dim>-1</dim>
				</port>
			</output>
		</layer>
		<layer id="136" name="__module.model.model.6.m.0.m.0.cv2.conv/aten::_convolution/Reshape_compressed" type="Const" version="opset1">
			<data element_type="f16" shape="1, 30, 1, 1" offset="459938" size="60" />
			<output>
				<port id="0" precision="FP16">
					<dim>1</dim>
					<dim>30</dim>
					<dim>1</dim>
					<dim>1</dim>
				</port>
			</output>
		</layer>
		<layer id="137" name="__module.model.model.6.m.0.m.0.cv2.conv/aten::_convolution/Reshape" type="Convert" version="opset1">
			<data destination_type="f32" />
			<rt_info>
				<attribute name="decompression" version="0" />
			</rt_info>
			<input>
				<port id="0" precision="FP16">
					<dim>1</dim>
					<dim>30</dim>
					<dim>1</dim>
					<dim>1</dim>
				</port>
			</input>
			<output>
				<port id="1" precision="FP32">
					<dim>1</dim>
					<dim>30</dim>
					<dim>1</dim>
					<dim>1</dim>
				</port>
			</output>
		</layer>
		<layer id="138" name="__module.model.model.6.m.0.m.0.cv2.conv/aten::_convolution/Add" type="Add" version="opset1">
			<data auto_broadcast="numpy" />
			<input>
				<port id="0" precision="FP32">
					<dim>-1</dim>
					<dim>30</dim>
					<dim>-1</dim>
					<dim>-1</dim>
				</port>
				<port id="1" precision="FP32">
					<dim>1</dim>
					<dim>30</dim>
					<dim>1</dim>
					<dim>1</dim>
				</port>
			</input>
			<output>
				<port id="2" precision="FP32" names="4373_1">
					<dim>-1</dim>
					<dim>30</dim>
					<dim>-1</dim>
					<dim>-1</dim>
				</port>
			</output>
		</layer>
		<layer id="139" name="__module.model.model.23.cv3.2.1.1.act/aten::silu_/Swish_18" type="Swish" version="opset4">
			<input>
				<port id="0" precision="FP32">
					<dim>-1</dim>
					<dim>30</dim>
					<dim>-1</dim>
					<dim>-1</dim>
				</port>
			</input>
			<output>
				<port id="1" precision="FP32" names="4373,input.67">
					<dim>-1</dim>
					<dim>30</dim>
					<dim>-1</dim>
					<dim>-1</dim>
				</port>
			</output>
		</layer>
		<layer id="140" name="__module.model.model.6.m.0.m.0/aten::add/Add" type="Add" version="opset1">
			<data auto_broadcast="numpy" />
			<input>
				<port id="0" precision="FP32">
					<dim>-1</dim>
					<dim>30</dim>
					<dim>-1</dim>
					<dim>-1</dim>
				</port>
				<port id="1" precision="FP32">
					<dim>-1</dim>
					<dim>30</dim>
					<dim>-1</dim>
					<dim>-1</dim>
				</port>
			</input>
			<output>
				<port id="2" precision="FP32" names="4375,input.69">
					<dim>-1</dim>
					<dim>30</dim>
					<dim>-1</dim>
					<dim>-1</dim>
				</port>
			</output>
		</layer>
		<layer id="141" name="self.model.model.6.m.0.m.1.cv1.conv.weight_compressed" type="Const" version="opset1">
			<data element_type="f16" shape="30, 30, 3, 3" offset="459998" size="16200" />
			<output>
				<port id="0" precision="FP16" names="self.model.model.6.m.0.m.1.cv1.conv.weight">
					<dim>30</dim>
					<dim>30</dim>
					<dim>3</dim>
					<dim>3</dim>
				</port>
			</output>
		</layer>
		<layer id="142" name="self.model.model.6.m.0.m.1.cv1.conv.weight" type="Convert" version="opset1">
			<data destination_type="f32" />
			<rt_info>
				<attribute name="decompression" version="0" />
			</rt_info>
			<input>
				<port id="0" precision="FP16">
					<dim>30</dim>
					<dim>30</dim>
					<dim>3</dim>
					<dim>3</dim>
				</port>
			</input>
			<output>
				<port id="1" precision="FP32">
					<dim>30</dim>
					<dim>30</dim>
					<dim>3</dim>
					<dim>3</dim>
				</port>
			</output>
		</layer>
		<layer id="143" name="__module.model.model.6.m.0.m.1.cv1.conv/aten::_convolution/Convolution" type="Convolution" version="opset1">
			<data strides="1, 1" dilations="1, 1" pads_begin="1, 1" pads_end="1, 1" auto_pad="explicit" />
			<input>
				<port id="0" precision="FP32">
					<dim>-1</dim>
					<dim>30</dim>
					<dim>-1</dim>
					<dim>-1</dim>
				</port>
				<port id="1" precision="FP32">
					<dim>30</dim>
					<dim>30</dim>
					<dim>3</dim>
					<dim>3</dim>
				</port>
			</input>
			<output>
				<port id="2" precision="FP32">
					<dim>-1</dim>
					<dim>30</dim>
					<dim>-1</dim>
					<dim>-1</dim>
				</port>
			</output>
		</layer>
		<layer id="144" name="__module.model.model.6.m.0.m.1.cv1.conv/aten::_convolution/Reshape_compressed" type="Const" version="opset1">
			<data element_type="f16" shape="1, 30, 1, 1" offset="476198" size="60" />
			<output>
				<port id="0" precision="FP16">
					<dim>1</dim>
					<dim>30</dim>
					<dim>1</dim>
					<dim>1</dim>
				</port>
			</output>
		</layer>
		<layer id="145" name="__module.model.model.6.m.0.m.1.cv1.conv/aten::_convolution/Reshape" type="Convert" version="opset1">
			<data destination_type="f32" />
			<rt_info>
				<attribute name="decompression" version="0" />
			</rt_info>
			<input>
				<port id="0" precision="FP16">
					<dim>1</dim>
					<dim>30</dim>
					<dim>1</dim>
					<dim>1</dim>
				</port>
			</input>
			<output>
				<port id="1" precision="FP32">
					<dim>1</dim>
					<dim>30</dim>
					<dim>1</dim>
					<dim>1</dim>
				</port>
			</output>
		</layer>
		<layer id="146" name="__module.model.model.6.m.0.m.1.cv1.conv/aten::_convolution/Add" type="Add" version="opset1">
			<data auto_broadcast="numpy" />
			<input>
				<port id="0" precision="FP32">
					<dim>-1</dim>
					<dim>30</dim>
					<dim>-1</dim>
					<dim>-1</dim>
				</port>
				<port id="1" precision="FP32">
					<dim>1</dim>
					<dim>30</dim>
					<dim>1</dim>
					<dim>1</dim>
				</port>
			</input>
			<output>
				<port id="2" precision="FP32" names="4385_1">
					<dim>-1</dim>
					<dim>30</dim>
					<dim>-1</dim>
					<dim>-1</dim>
				</port>
			</output>
		</layer>
		<layer id="147" name="__module.model.model.23.cv3.2.1.1.act/aten::silu_/Swish_19" type="Swish" version="opset4">
			<input>
				<port id="0" precision="FP32">
					<dim>-1</dim>
					<dim>30</dim>
					<dim>-1</dim>
					<dim>-1</dim>
				</port>
			</input>
			<output>
				<port id="1" precision="FP32" names="4385,input.71">
					<dim>-1</dim>
					<dim>30</dim>
					<dim>-1</dim>
					<dim>-1</dim>
				</port>
			</output>
		</layer>
		<layer id="148" name="self.model.model.6.m.0.m.1.cv2.conv.weight_compressed" type="Const" version="opset1">
			<data element_type="f16" shape="30, 30, 3, 3" offset="476258" size="16200" />
			<output>
				<port id="0" precision="FP16" names="self.model.model.6.m.0.m.1.cv2.conv.weight">
					<dim>30</dim>
					<dim>30</dim>
					<dim>3</dim>
					<dim>3</dim>
				</port>
			</output>
		</layer>
		<layer id="149" name="self.model.model.6.m.0.m.1.cv2.conv.weight" type="Convert" version="opset1">
			<data destination_type="f32" />
			<rt_info>
				<attribute name="decompression" version="0" />
			</rt_info>
			<input>
				<port id="0" precision="FP16">
					<dim>30</dim>
					<dim>30</dim>
					<dim>3</dim>
					<dim>3</dim>
				</port>
			</input>
			<output>
				<port id="1" precision="FP32">
					<dim>30</dim>
					<dim>30</dim>
					<dim>3</dim>
					<dim>3</dim>
				</port>
			</output>
		</layer>
		<layer id="150" name="__module.model.model.6.m.0.m.1.cv2.conv/aten::_convolution/Convolution" type="Convolution" version="opset1">
			<data strides="1, 1" dilations="1, 1" pads_begin="1, 1" pads_end="1, 1" auto_pad="explicit" />
			<input>
				<port id="0" precision="FP32">
					<dim>-1</dim>
					<dim>30</dim>
					<dim>-1</dim>
					<dim>-1</dim>
				</port>
				<port id="1" precision="FP32">
					<dim>30</dim>
					<dim>30</dim>
					<dim>3</dim>
					<dim>3</dim>
				</port>
			</input>
			<output>
				<port id="2" precision="FP32">
					<dim>-1</dim>
					<dim>30</dim>
					<dim>-1</dim>
					<dim>-1</dim>
				</port>
			</output>
		</layer>
		<layer id="151" name="__module.model.model.6.m.0.m.1.cv2.conv/aten::_convolution/Reshape_compressed" type="Const" version="opset1">
			<data element_type="f16" shape="1, 30, 1, 1" offset="492458" size="60" />
			<output>
				<port id="0" precision="FP16">
					<dim>1</dim>
					<dim>30</dim>
					<dim>1</dim>
					<dim>1</dim>
				</port>
			</output>
		</layer>
		<layer id="152" name="__module.model.model.6.m.0.m.1.cv2.conv/aten::_convolution/Reshape" type="Convert" version="opset1">
			<data destination_type="f32" />
			<rt_info>
				<attribute name="decompression" version="0" />
			</rt_info>
			<input>
				<port id="0" precision="FP16">
					<dim>1</dim>
					<dim>30</dim>
					<dim>1</dim>
					<dim>1</dim>
				</port>
			</input>
			<output>
				<port id="1" precision="FP32">
					<dim>1</dim>
					<dim>30</dim>
					<dim>1</dim>
					<dim>1</dim>
				</port>
			</output>
		</layer>
		<layer id="153" name="__module.model.model.6.m.0.m.1.cv2.conv/aten::_convolution/Add" type="Add" version="opset1">
			<data auto_broadcast="numpy" />
			<input>
				<port id="0" precision="FP32">
					<dim>-1</dim>
					<dim>30</dim>
					<dim>-1</dim>
					<dim>-1</dim>
				</port>
				<port id="1" precision="FP32">
					<dim>1</dim>
					<dim>30</dim>
					<dim>1</dim>
					<dim>1</dim>
				</port>
			</input>
			<output>
				<port id="2" precision="FP32" names="4394_1">
					<dim>-1</dim>
					<dim>30</dim>
					<dim>-1</dim>
					<dim>-1</dim>
				</port>
			</output>
		</layer>
		<layer id="154" name="__module.model.model.23.cv3.2.1.1.act/aten::silu_/Swish_20" type="Swish" version="opset4">
			<input>
				<port id="0" precision="FP32">
					<dim>-1</dim>
					<dim>30</dim>
					<dim>-1</dim>
					<dim>-1</dim>
				</port>
			</input>
			<output>
				<port id="1" precision="FP32" names="4394,input.75">
					<dim>-1</dim>
					<dim>30</dim>
					<dim>-1</dim>
					<dim>-1</dim>
				</port>
			</output>
		</layer>
		<layer id="155" name="__module.model.model.6.m.0.m.1/aten::add/Add" type="Add" version="opset1">
			<data auto_broadcast="numpy" />
			<input>
				<port id="0" precision="FP32">
					<dim>-1</dim>
					<dim>30</dim>
					<dim>-1</dim>
					<dim>-1</dim>
				</port>
				<port id="1" precision="FP32">
					<dim>-1</dim>
					<dim>30</dim>
					<dim>-1</dim>
					<dim>-1</dim>
				</port>
			</input>
			<output>
				<port id="2" precision="FP32" names="4396">
					<dim>-1</dim>
					<dim>30</dim>
					<dim>-1</dim>
					<dim>-1</dim>
				</port>
			</output>
		</layer>
		<layer id="156" name="self.model.model.6.m.0.cv2.conv.weight_compressed" type="Const" version="opset1">
			<data element_type="f16" shape="30, 60, 1, 1" offset="492518" size="3600" />
			<output>
				<port id="0" precision="FP16" names="self.model.model.6.m.0.cv2.conv.weight">
					<dim>30</dim>
					<dim>60</dim>
					<dim>1</dim>
					<dim>1</dim>
				</port>
			</output>
		</layer>
		<layer id="157" name="self.model.model.6.m.0.cv2.conv.weight" type="Convert" version="opset1">
			<data destination_type="f32" />
			<rt_info>
				<attribute name="decompression" version="0" />
			</rt_info>
			<input>
				<port id="0" precision="FP16">
					<dim>30</dim>
					<dim>60</dim>
					<dim>1</dim>
					<dim>1</dim>
				</port>
			</input>
			<output>
				<port id="1" precision="FP32">
					<dim>30</dim>
					<dim>60</dim>
					<dim>1</dim>
					<dim>1</dim>
				</port>
			</output>
		</layer>
		<layer id="158" name="__module.model.model.6.m.0.cv2.conv/aten::_convolution/Convolution" type="Convolution" version="opset1">
			<data strides="1, 1" dilations="1, 1" pads_begin="0, 0" pads_end="0, 0" auto_pad="explicit" />
			<input>
				<port id="0" precision="FP32">
					<dim>-1</dim>
					<dim>60</dim>
					<dim>-1</dim>
					<dim>-1</dim>
				</port>
				<port id="1" precision="FP32">
					<dim>30</dim>
					<dim>60</dim>
					<dim>1</dim>
					<dim>1</dim>
				</port>
			</input>
			<output>
				<port id="2" precision="FP32">
					<dim>-1</dim>
					<dim>30</dim>
					<dim>-1</dim>
					<dim>-1</dim>
				</port>
			</output>
		</layer>
		<layer id="159" name="__module.model.model.6.m.0.cv2.conv/aten::_convolution/Reshape_compressed" type="Const" version="opset1">
			<data element_type="f16" shape="1, 30, 1, 1" offset="496118" size="60" />
			<output>
				<port id="0" precision="FP16">
					<dim>1</dim>
					<dim>30</dim>
					<dim>1</dim>
					<dim>1</dim>
				</port>
			</output>
		</layer>
		<layer id="160" name="__module.model.model.6.m.0.cv2.conv/aten::_convolution/Reshape" type="Convert" version="opset1">
			<data destination_type="f32" />
			<rt_info>
				<attribute name="decompression" version="0" />
			</rt_info>
			<input>
				<port id="0" precision="FP16">
					<dim>1</dim>
					<dim>30</dim>
					<dim>1</dim>
					<dim>1</dim>
				</port>
			</input>
			<output>
				<port id="1" precision="FP32">
					<dim>1</dim>
					<dim>30</dim>
					<dim>1</dim>
					<dim>1</dim>
				</port>
			</output>
		</layer>
		<layer id="161" name="__module.model.model.6.m.0.cv2.conv/aten::_convolution/Add" type="Add" version="opset1">
			<data auto_broadcast="numpy" />
			<input>
				<port id="0" precision="FP32">
					<dim>-1</dim>
					<dim>30</dim>
					<dim>-1</dim>
					<dim>-1</dim>
				</port>
				<port id="1" precision="FP32">
					<dim>1</dim>
					<dim>30</dim>
					<dim>1</dim>
					<dim>1</dim>
				</port>
			</input>
			<output>
				<port id="2" precision="FP32" names="4404_1">
					<dim>-1</dim>
					<dim>30</dim>
					<dim>-1</dim>
					<dim>-1</dim>
				</port>
			</output>
		</layer>
		<layer id="162" name="__module.model.model.23.cv3.2.1.1.act/aten::silu_/Swish_21" type="Swish" version="opset4">
			<input>
				<port id="0" precision="FP32">
					<dim>-1</dim>
					<dim>30</dim>
					<dim>-1</dim>
					<dim>-1</dim>
				</port>
			</input>
			<output>
				<port id="1" precision="FP32" names="4404,input.77">
					<dim>-1</dim>
					<dim>30</dim>
					<dim>-1</dim>
					<dim>-1</dim>
				</port>
			</output>
		</layer>
		<layer id="163" name="__module.model.model.6.m.0/aten::cat/Concat" type="Concat" version="opset1">
			<data axis="1" />
			<input>
				<port id="0" precision="FP32">
					<dim>-1</dim>
					<dim>30</dim>
					<dim>-1</dim>
					<dim>-1</dim>
				</port>
				<port id="1" precision="FP32">
					<dim>-1</dim>
					<dim>30</dim>
					<dim>-1</dim>
					<dim>-1</dim>
				</port>
			</input>
			<output>
				<port id="2" precision="FP32" names="4407,input.79">
					<dim>-1</dim>
					<dim>60</dim>
					<dim>-1</dim>
					<dim>-1</dim>
				</port>
			</output>
		</layer>
		<layer id="164" name="self.model.model.6.m.0.cv3.conv.weight_compressed" type="Const" version="opset1">
			<data element_type="f16" shape="60, 60, 1, 1" offset="496178" size="7200" />
			<output>
				<port id="0" precision="FP16" names="self.model.model.6.m.0.cv3.conv.weight">
					<dim>60</dim>
					<dim>60</dim>
					<dim>1</dim>
					<dim>1</dim>
				</port>
			</output>
		</layer>
		<layer id="165" name="self.model.model.6.m.0.cv3.conv.weight" type="Convert" version="opset1">
			<data destination_type="f32" />
			<rt_info>
				<attribute name="decompression" version="0" />
			</rt_info>
			<input>
				<port id="0" precision="FP16">
					<dim>60</dim>
					<dim>60</dim>
					<dim>1</dim>
					<dim>1</dim>
				</port>
			</input>
			<output>
				<port id="1" precision="FP32">
					<dim>60</dim>
					<dim>60</dim>
					<dim>1</dim>
					<dim>1</dim>
				</port>
			</output>
		</layer>
		<layer id="166" name="__module.model.model.6.m.0.cv3.conv/aten::_convolution/Convolution" type="Convolution" version="opset1">
			<data strides="1, 1" dilations="1, 1" pads_begin="0, 0" pads_end="0, 0" auto_pad="explicit" />
			<input>
				<port id="0" precision="FP32">
					<dim>-1</dim>
					<dim>60</dim>
					<dim>-1</dim>
					<dim>-1</dim>
				</port>
				<port id="1" precision="FP32">
					<dim>60</dim>
					<dim>60</dim>
					<dim>1</dim>
					<dim>1</dim>
				</port>
			</input>
			<output>
				<port id="2" precision="FP32">
					<dim>-1</dim>
					<dim>60</dim>
					<dim>-1</dim>
					<dim>-1</dim>
				</port>
			</output>
		</layer>
		<layer id="167" name="__module.model.model.6.m.0.cv3.conv/aten::_convolution/Reshape_compressed" type="Const" version="opset1">
			<data element_type="f16" shape="1, 60, 1, 1" offset="503378" size="120" />
			<output>
				<port id="0" precision="FP16">
					<dim>1</dim>
					<dim>60</dim>
					<dim>1</dim>
					<dim>1</dim>
				</port>
			</output>
		</layer>
		<layer id="168" name="__module.model.model.6.m.0.cv3.conv/aten::_convolution/Reshape" type="Convert" version="opset1">
			<data destination_type="f32" />
			<rt_info>
				<attribute name="decompression" version="0" />
			</rt_info>
			<input>
				<port id="0" precision="FP16">
					<dim>1</dim>
					<dim>60</dim>
					<dim>1</dim>
					<dim>1</dim>
				</port>
			</input>
			<output>
				<port id="1" precision="FP32">
					<dim>1</dim>
					<dim>60</dim>
					<dim>1</dim>
					<dim>1</dim>
				</port>
			</output>
		</layer>
		<layer id="169" name="__module.model.model.6.m.0.cv3.conv/aten::_convolution/Add" type="Add" version="opset1">
			<data auto_broadcast="numpy" />
			<input>
				<port id="0" precision="FP32">
					<dim>-1</dim>
					<dim>60</dim>
					<dim>-1</dim>
					<dim>-1</dim>
				</port>
				<port id="1" precision="FP32">
					<dim>1</dim>
					<dim>60</dim>
					<dim>1</dim>
					<dim>1</dim>
				</port>
			</input>
			<output>
				<port id="2" precision="FP32" names="4415_1">
					<dim>-1</dim>
					<dim>60</dim>
					<dim>-1</dim>
					<dim>-1</dim>
				</port>
			</output>
		</layer>
		<layer id="170" name="__module.model.model.23.cv3.2.1.1.act/aten::silu_/Swish_22" type="Swish" version="opset4">
			<input>
				<port id="0" precision="FP32">
					<dim>-1</dim>
					<dim>60</dim>
					<dim>-1</dim>
					<dim>-1</dim>
				</port>
			</input>
			<output>
				<port id="1" precision="FP32" names="4415,input.81">
					<dim>-1</dim>
					<dim>60</dim>
					<dim>-1</dim>
					<dim>-1</dim>
				</port>
			</output>
		</layer>
		<layer id="171" name="__module.model.model.6/aten::cat/Concat" type="Concat" version="opset1">
			<data axis="1" />
			<input>
				<port id="0" precision="FP32">
					<dim>-1</dim>
					<dim>60</dim>
					<dim>-1</dim>
					<dim>-1</dim>
				</port>
				<port id="1" precision="FP32">
					<dim>-1</dim>
					<dim>60</dim>
					<dim>-1</dim>
					<dim>-1</dim>
				</port>
				<port id="2" precision="FP32">
					<dim>-1</dim>
					<dim>60</dim>
					<dim>-1</dim>
					<dim>-1</dim>
				</port>
			</input>
			<output>
				<port id="3" precision="FP32" names="4418,input.83">
					<dim>-1</dim>
					<dim>180</dim>
					<dim>-1</dim>
					<dim>-1</dim>
				</port>
			</output>
		</layer>
		<layer id="172" name="self.model.model.6.cv2.conv.weight_compressed" type="Const" version="opset1">
			<data element_type="f16" shape="121, 180, 1, 1" offset="503498" size="43560" />
			<output>
				<port id="0" precision="FP16" names="self.model.model.6.cv2.conv.weight">
					<dim>121</dim>
					<dim>180</dim>
					<dim>1</dim>
					<dim>1</dim>
				</port>
			</output>
		</layer>
		<layer id="173" name="self.model.model.6.cv2.conv.weight" type="Convert" version="opset1">
			<data destination_type="f32" />
			<rt_info>
				<attribute name="decompression" version="0" />
			</rt_info>
			<input>
				<port id="0" precision="FP16">
					<dim>121</dim>
					<dim>180</dim>
					<dim>1</dim>
					<dim>1</dim>
				</port>
			</input>
			<output>
				<port id="1" precision="FP32">
					<dim>121</dim>
					<dim>180</dim>
					<dim>1</dim>
					<dim>1</dim>
				</port>
			</output>
		</layer>
		<layer id="174" name="__module.model.model.6.cv2.conv/aten::_convolution/Convolution" type="Convolution" version="opset1">
			<data strides="1, 1" dilations="1, 1" pads_begin="0, 0" pads_end="0, 0" auto_pad="explicit" />
			<input>
				<port id="0" precision="FP32">
					<dim>-1</dim>
					<dim>180</dim>
					<dim>-1</dim>
					<dim>-1</dim>
				</port>
				<port id="1" precision="FP32">
					<dim>121</dim>
					<dim>180</dim>
					<dim>1</dim>
					<dim>1</dim>
				</port>
			</input>
			<output>
				<port id="2" precision="FP32">
					<dim>-1</dim>
					<dim>121</dim>
					<dim>-1</dim>
					<dim>-1</dim>
				</port>
			</output>
		</layer>
		<layer id="175" name="__module.model.model.6.cv2.conv/aten::_convolution/Reshape_compressed" type="Const" version="opset1">
			<data element_type="f16" shape="1, 121, 1, 1" offset="547058" size="242" />
			<output>
				<port id="0" precision="FP16">
					<dim>1</dim>
					<dim>121</dim>
					<dim>1</dim>
					<dim>1</dim>
				</port>
			</output>
		</layer>
		<layer id="176" name="__module.model.model.6.cv2.conv/aten::_convolution/Reshape" type="Convert" version="opset1">
			<data destination_type="f32" />
			<rt_info>
				<attribute name="decompression" version="0" />
			</rt_info>
			<input>
				<port id="0" precision="FP16">
					<dim>1</dim>
					<dim>121</dim>
					<dim>1</dim>
					<dim>1</dim>
				</port>
			</input>
			<output>
				<port id="1" precision="FP32">
					<dim>1</dim>
					<dim>121</dim>
					<dim>1</dim>
					<dim>1</dim>
				</port>
			</output>
		</layer>
		<layer id="177" name="__module.model.model.6.cv2.conv/aten::_convolution/Add" type="Add" version="opset1">
			<data auto_broadcast="numpy" />
			<input>
				<port id="0" precision="FP32">
					<dim>-1</dim>
					<dim>121</dim>
					<dim>-1</dim>
					<dim>-1</dim>
				</port>
				<port id="1" precision="FP32">
					<dim>1</dim>
					<dim>121</dim>
					<dim>1</dim>
					<dim>1</dim>
				</port>
			</input>
			<output>
				<port id="2" precision="FP32" names="4426_1">
					<dim>-1</dim>
					<dim>121</dim>
					<dim>-1</dim>
					<dim>-1</dim>
				</port>
			</output>
		</layer>
		<layer id="178" name="__module.model.model.23.cv3.2.1.1.act/aten::silu_/Swish_23" type="Swish" version="opset4">
			<input>
				<port id="0" precision="FP32">
					<dim>-1</dim>
					<dim>121</dim>
					<dim>-1</dim>
					<dim>-1</dim>
				</port>
			</input>
			<output>
				<port id="1" precision="FP32" names="4426,input.85">
					<dim>-1</dim>
					<dim>121</dim>
					<dim>-1</dim>
					<dim>-1</dim>
				</port>
			</output>
		</layer>
		<layer id="179" name="self.model.model.7.conv.weight_compressed" type="Const" version="opset1">
			<data element_type="f16" shape="243, 121, 3, 3" offset="547300" size="529254" />
			<output>
				<port id="0" precision="FP16" names="self.model.model.7.conv.weight">
					<dim>243</dim>
					<dim>121</dim>
					<dim>3</dim>
					<dim>3</dim>
				</port>
			</output>
		</layer>
		<layer id="180" name="self.model.model.7.conv.weight" type="Convert" version="opset1">
			<data destination_type="f32" />
			<rt_info>
				<attribute name="decompression" version="0" />
			</rt_info>
			<input>
				<port id="0" precision="FP16">
					<dim>243</dim>
					<dim>121</dim>
					<dim>3</dim>
					<dim>3</dim>
				</port>
			</input>
			<output>
				<port id="1" precision="FP32">
					<dim>243</dim>
					<dim>121</dim>
					<dim>3</dim>
					<dim>3</dim>
				</port>
			</output>
		</layer>
		<layer id="181" name="__module.model.model.7.conv/aten::_convolution/Convolution" type="Convolution" version="opset1">
			<data strides="2, 2" dilations="1, 1" pads_begin="1, 1" pads_end="1, 1" auto_pad="explicit" />
			<input>
				<port id="0" precision="FP32">
					<dim>-1</dim>
					<dim>121</dim>
					<dim>-1</dim>
					<dim>-1</dim>
				</port>
				<port id="1" precision="FP32">
					<dim>243</dim>
					<dim>121</dim>
					<dim>3</dim>
					<dim>3</dim>
				</port>
			</input>
			<output>
				<port id="2" precision="FP32">
					<dim>-1</dim>
					<dim>243</dim>
					<dim>-1</dim>
					<dim>-1</dim>
				</port>
			</output>
		</layer>
		<layer id="182" name="__module.model.model.7.conv/aten::_convolution/Reshape_compressed" type="Const" version="opset1">
			<data element_type="f16" shape="1, 243, 1, 1" offset="1076554" size="486" />
			<output>
				<port id="0" precision="FP16">
					<dim>1</dim>
					<dim>243</dim>
					<dim>1</dim>
					<dim>1</dim>
				</port>
			</output>
		</layer>
		<layer id="183" name="__module.model.model.7.conv/aten::_convolution/Reshape" type="Convert" version="opset1">
			<data destination_type="f32" />
			<rt_info>
				<attribute name="decompression" version="0" />
			</rt_info>
			<input>
				<port id="0" precision="FP16">
					<dim>1</dim>
					<dim>243</dim>
					<dim>1</dim>
					<dim>1</dim>
				</port>
			</input>
			<output>
				<port id="1" precision="FP32">
					<dim>1</dim>
					<dim>243</dim>
					<dim>1</dim>
					<dim>1</dim>
				</port>
			</output>
		</layer>
		<layer id="184" name="__module.model.model.7.conv/aten::_convolution/Add" type="Add" version="opset1">
			<data auto_broadcast="numpy" />
			<input>
				<port id="0" precision="FP32">
					<dim>-1</dim>
					<dim>243</dim>
					<dim>-1</dim>
					<dim>-1</dim>
				</port>
				<port id="1" precision="FP32">
					<dim>1</dim>
					<dim>243</dim>
					<dim>1</dim>
					<dim>1</dim>
				</port>
			</input>
			<output>
				<port id="2" precision="FP32" names="4435_1">
					<dim>-1</dim>
					<dim>243</dim>
					<dim>-1</dim>
					<dim>-1</dim>
				</port>
			</output>
		</layer>
		<layer id="185" name="__module.model.model.23.cv3.2.1.1.act/aten::silu_/Swish_24" type="Swish" version="opset4">
			<input>
				<port id="0" precision="FP32">
					<dim>-1</dim>
					<dim>243</dim>
					<dim>-1</dim>
					<dim>-1</dim>
				</port>
			</input>
			<output>
				<port id="1" precision="FP32" names="4435,input.89">
					<dim>-1</dim>
					<dim>243</dim>
					<dim>-1</dim>
					<dim>-1</dim>
				</port>
			</output>
		</layer>
		<layer id="186" name="self.model.model.8.cv0.conv.weight_compressed" type="Const" version="opset1">
			<data element_type="f16" shape="121, 243, 1, 1" offset="1077040" size="58806" />
			<output>
				<port id="0" precision="FP16" names="self.model.model.8.cv0.conv.weight">
					<dim>121</dim>
					<dim>243</dim>
					<dim>1</dim>
					<dim>1</dim>
				</port>
			</output>
		</layer>
		<layer id="187" name="self.model.model.8.cv0.conv.weight" type="Convert" version="opset1">
			<data destination_type="f32" />
			<rt_info>
				<attribute name="decompression" version="0" />
			</rt_info>
			<input>
				<port id="0" precision="FP16">
					<dim>121</dim>
					<dim>243</dim>
					<dim>1</dim>
					<dim>1</dim>
				</port>
			</input>
			<output>
				<port id="1" precision="FP32">
					<dim>121</dim>
					<dim>243</dim>
					<dim>1</dim>
					<dim>1</dim>
				</port>
			</output>
		</layer>
		<layer id="188" name="__module.model.model.8.cv0.conv/aten::_convolution/Convolution" type="Convolution" version="opset1">
			<data strides="1, 1" dilations="1, 1" pads_begin="0, 0" pads_end="0, 0" auto_pad="explicit" />
			<input>
				<port id="0" precision="FP32">
					<dim>-1</dim>
					<dim>243</dim>
					<dim>-1</dim>
					<dim>-1</dim>
				</port>
				<port id="1" precision="FP32">
					<dim>121</dim>
					<dim>243</dim>
					<dim>1</dim>
					<dim>1</dim>
				</port>
			</input>
			<output>
				<port id="2" precision="FP32">
					<dim>-1</dim>
					<dim>121</dim>
					<dim>-1</dim>
					<dim>-1</dim>
				</port>
			</output>
		</layer>
		<layer id="189" name="__module.model.model.8.cv0.conv/aten::_convolution/Reshape_compressed" type="Const" version="opset1">
			<data element_type="f16" shape="1, 121, 1, 1" offset="1135846" size="242" />
			<output>
				<port id="0" precision="FP16">
					<dim>1</dim>
					<dim>121</dim>
					<dim>1</dim>
					<dim>1</dim>
				</port>
			</output>
		</layer>
		<layer id="190" name="__module.model.model.8.cv0.conv/aten::_convolution/Reshape" type="Convert" version="opset1">
			<data destination_type="f32" />
			<rt_info>
				<attribute name="decompression" version="0" />
			</rt_info>
			<input>
				<port id="0" precision="FP16">
					<dim>1</dim>
					<dim>121</dim>
					<dim>1</dim>
					<dim>1</dim>
				</port>
			</input>
			<output>
				<port id="1" precision="FP32">
					<dim>1</dim>
					<dim>121</dim>
					<dim>1</dim>
					<dim>1</dim>
				</port>
			</output>
		</layer>
		<layer id="191" name="__module.model.model.8.cv0.conv/aten::_convolution/Add" type="Add" version="opset1">
			<data auto_broadcast="numpy" />
			<input>
				<port id="0" precision="FP32">
					<dim>-1</dim>
					<dim>121</dim>
					<dim>-1</dim>
					<dim>-1</dim>
				</port>
				<port id="1" precision="FP32">
					<dim>1</dim>
					<dim>121</dim>
					<dim>1</dim>
					<dim>1</dim>
				</port>
			</input>
			<output>
				<port id="2" precision="FP32" names="4449_1">
					<dim>-1</dim>
					<dim>121</dim>
					<dim>-1</dim>
					<dim>-1</dim>
				</port>
			</output>
		</layer>
		<layer id="192" name="__module.model.model.23.cv3.2.1.1.act/aten::silu_/Swish_25" type="Swish" version="opset4">
			<input>
				<port id="0" precision="FP32">
					<dim>-1</dim>
					<dim>121</dim>
					<dim>-1</dim>
					<dim>-1</dim>
				</port>
			</input>
			<output>
				<port id="1" precision="FP32" names="4449,input.93">
					<dim>-1</dim>
					<dim>121</dim>
					<dim>-1</dim>
					<dim>-1</dim>
				</port>
			</output>
		</layer>
		<layer id="193" name="self.model.model.8.cv1.conv.weight_compressed" type="Const" version="opset1">
			<data element_type="f16" shape="121, 243, 1, 1" offset="1136088" size="58806" />
			<output>
				<port id="0" precision="FP16" names="self.model.model.8.cv1.conv.weight">
					<dim>121</dim>
					<dim>243</dim>
					<dim>1</dim>
					<dim>1</dim>
				</port>
			</output>
		</layer>
		<layer id="194" name="self.model.model.8.cv1.conv.weight" type="Convert" version="opset1">
			<data destination_type="f32" />
			<rt_info>
				<attribute name="decompression" version="0" />
			</rt_info>
			<input>
				<port id="0" precision="FP16">
					<dim>121</dim>
					<dim>243</dim>
					<dim>1</dim>
					<dim>1</dim>
				</port>
			</input>
			<output>
				<port id="1" precision="FP32">
					<dim>121</dim>
					<dim>243</dim>
					<dim>1</dim>
					<dim>1</dim>
				</port>
			</output>
		</layer>
		<layer id="195" name="__module.model.model.8.cv1.conv/aten::_convolution/Convolution" type="Convolution" version="opset1">
			<data strides="1, 1" dilations="1, 1" pads_begin="0, 0" pads_end="0, 0" auto_pad="explicit" />
			<input>
				<port id="0" precision="FP32">
					<dim>-1</dim>
					<dim>243</dim>
					<dim>-1</dim>
					<dim>-1</dim>
				</port>
				<port id="1" precision="FP32">
					<dim>121</dim>
					<dim>243</dim>
					<dim>1</dim>
					<dim>1</dim>
				</port>
			</input>
			<output>
				<port id="2" precision="FP32">
					<dim>-1</dim>
					<dim>121</dim>
					<dim>-1</dim>
					<dim>-1</dim>
				</port>
			</output>
		</layer>
		<layer id="196" name="__module.model.model.8.cv1.conv/aten::_convolution/Reshape_compressed" type="Const" version="opset1">
			<data element_type="f16" shape="1, 121, 1, 1" offset="1194894" size="242" />
			<output>
				<port id="0" precision="FP16">
					<dim>1</dim>
					<dim>121</dim>
					<dim>1</dim>
					<dim>1</dim>
				</port>
			</output>
		</layer>
		<layer id="197" name="__module.model.model.8.cv1.conv/aten::_convolution/Reshape" type="Convert" version="opset1">
			<data destination_type="f32" />
			<rt_info>
				<attribute name="decompression" version="0" />
			</rt_info>
			<input>
				<port id="0" precision="FP16">
					<dim>1</dim>
					<dim>121</dim>
					<dim>1</dim>
					<dim>1</dim>
				</port>
			</input>
			<output>
				<port id="1" precision="FP32">
					<dim>1</dim>
					<dim>121</dim>
					<dim>1</dim>
					<dim>1</dim>
				</port>
			</output>
		</layer>
		<layer id="198" name="__module.model.model.8.cv1.conv/aten::_convolution/Add" type="Add" version="opset1">
			<data auto_broadcast="numpy" />
			<input>
				<port id="0" precision="FP32">
					<dim>-1</dim>
					<dim>121</dim>
					<dim>-1</dim>
					<dim>-1</dim>
				</port>
				<port id="1" precision="FP32">
					<dim>1</dim>
					<dim>121</dim>
					<dim>1</dim>
					<dim>1</dim>
				</port>
			</input>
			<output>
				<port id="2" precision="FP32" names="4458_1">
					<dim>-1</dim>
					<dim>121</dim>
					<dim>-1</dim>
					<dim>-1</dim>
				</port>
			</output>
		</layer>
		<layer id="199" name="__module.model.model.23.cv3.2.1.1.act/aten::silu_/Swish_26" type="Swish" version="opset4">
			<input>
				<port id="0" precision="FP32">
					<dim>-1</dim>
					<dim>121</dim>
					<dim>-1</dim>
					<dim>-1</dim>
				</port>
			</input>
			<output>
				<port id="1" precision="FP32" names="4458,input.95">
					<dim>-1</dim>
					<dim>121</dim>
					<dim>-1</dim>
					<dim>-1</dim>
				</port>
			</output>
		</layer>
		<layer id="200" name="self.model.model.8.m.0.cv1.conv.weight_compressed" type="Const" version="opset1">
			<data element_type="f16" shape="60, 121, 1, 1" offset="1195136" size="14520" />
			<output>
				<port id="0" precision="FP16" names="self.model.model.8.m.0.cv1.conv.weight">
					<dim>60</dim>
					<dim>121</dim>
					<dim>1</dim>
					<dim>1</dim>
				</port>
			</output>
		</layer>
		<layer id="201" name="self.model.model.8.m.0.cv1.conv.weight" type="Convert" version="opset1">
			<data destination_type="f32" />
			<rt_info>
				<attribute name="decompression" version="0" />
			</rt_info>
			<input>
				<port id="0" precision="FP16">
					<dim>60</dim>
					<dim>121</dim>
					<dim>1</dim>
					<dim>1</dim>
				</port>
			</input>
			<output>
				<port id="1" precision="FP32">
					<dim>60</dim>
					<dim>121</dim>
					<dim>1</dim>
					<dim>1</dim>
				</port>
			</output>
		</layer>
		<layer id="202" name="__module.model.model.8.m.0.cv1.conv/aten::_convolution/Convolution" type="Convolution" version="opset1">
			<data strides="1, 1" dilations="1, 1" pads_begin="0, 0" pads_end="0, 0" auto_pad="explicit" />
			<input>
				<port id="0" precision="FP32">
					<dim>-1</dim>
					<dim>121</dim>
					<dim>-1</dim>
					<dim>-1</dim>
				</port>
				<port id="1" precision="FP32">
					<dim>60</dim>
					<dim>121</dim>
					<dim>1</dim>
					<dim>1</dim>
				</port>
			</input>
			<output>
				<port id="2" precision="FP32">
					<dim>-1</dim>
					<dim>60</dim>
					<dim>-1</dim>
					<dim>-1</dim>
				</port>
			</output>
		</layer>
		<layer id="203" name="__module.model.model.8.m.0.cv1.conv/aten::_convolution/Reshape_compressed" type="Const" version="opset1">
			<data element_type="f16" shape="1, 60, 1, 1" offset="1209656" size="120" />
			<output>
				<port id="0" precision="FP16">
					<dim>1</dim>
					<dim>60</dim>
					<dim>1</dim>
					<dim>1</dim>
				</port>
			</output>
		</layer>
		<layer id="204" name="__module.model.model.8.m.0.cv1.conv/aten::_convolution/Reshape" type="Convert" version="opset1">
			<data destination_type="f32" />
			<rt_info>
				<attribute name="decompression" version="0" />
			</rt_info>
			<input>
				<port id="0" precision="FP16">
					<dim>1</dim>
					<dim>60</dim>
					<dim>1</dim>
					<dim>1</dim>
				</port>
			</input>
			<output>
				<port id="1" precision="FP32">
					<dim>1</dim>
					<dim>60</dim>
					<dim>1</dim>
					<dim>1</dim>
				</port>
			</output>
		</layer>
		<layer id="205" name="__module.model.model.8.m.0.cv1.conv/aten::_convolution/Add" type="Add" version="opset1">
			<data auto_broadcast="numpy" />
			<input>
				<port id="0" precision="FP32">
					<dim>-1</dim>
					<dim>60</dim>
					<dim>-1</dim>
					<dim>-1</dim>
				</port>
				<port id="1" precision="FP32">
					<dim>1</dim>
					<dim>60</dim>
					<dim>1</dim>
					<dim>1</dim>
				</port>
			</input>
			<output>
				<port id="2" precision="FP32" names="4471_1">
					<dim>-1</dim>
					<dim>60</dim>
					<dim>-1</dim>
					<dim>-1</dim>
				</port>
			</output>
		</layer>
		<layer id="206" name="__module.model.model.23.cv3.2.1.1.act/aten::silu_/Swish_27" type="Swish" version="opset4">
			<input>
				<port id="0" precision="FP32">
					<dim>-1</dim>
					<dim>60</dim>
					<dim>-1</dim>
					<dim>-1</dim>
				</port>
			</input>
			<output>
				<port id="1" precision="FP32" names="4471,input.99">
					<dim>-1</dim>
					<dim>60</dim>
					<dim>-1</dim>
					<dim>-1</dim>
				</port>
			</output>
		</layer>
		<layer id="207" name="self.model.model.8.m.0.m.0.cv1.conv.weight_compressed" type="Const" version="opset1">
			<data element_type="f16" shape="60, 60, 3, 3" offset="1209776" size="64800" />
			<output>
				<port id="0" precision="FP16" names="self.model.model.8.m.0.m.0.cv1.conv.weight">
					<dim>60</dim>
					<dim>60</dim>
					<dim>3</dim>
					<dim>3</dim>
				</port>
			</output>
		</layer>
		<layer id="208" name="self.model.model.8.m.0.m.0.cv1.conv.weight" type="Convert" version="opset1">
			<data destination_type="f32" />
			<rt_info>
				<attribute name="decompression" version="0" />
			</rt_info>
			<input>
				<port id="0" precision="FP16">
					<dim>60</dim>
					<dim>60</dim>
					<dim>3</dim>
					<dim>3</dim>
				</port>
			</input>
			<output>
				<port id="1" precision="FP32">
					<dim>60</dim>
					<dim>60</dim>
					<dim>3</dim>
					<dim>3</dim>
				</port>
			</output>
		</layer>
		<layer id="209" name="__module.model.model.8.m.0.m.0.cv1.conv/aten::_convolution/Convolution" type="Convolution" version="opset1">
			<data strides="1, 1" dilations="1, 1" pads_begin="1, 1" pads_end="1, 1" auto_pad="explicit" />
			<input>
				<port id="0" precision="FP32">
					<dim>-1</dim>
					<dim>60</dim>
					<dim>-1</dim>
					<dim>-1</dim>
				</port>
				<port id="1" precision="FP32">
					<dim>60</dim>
					<dim>60</dim>
					<dim>3</dim>
					<dim>3</dim>
				</port>
			</input>
			<output>
				<port id="2" precision="FP32">
					<dim>-1</dim>
					<dim>60</dim>
					<dim>-1</dim>
					<dim>-1</dim>
				</port>
			</output>
		</layer>
		<layer id="210" name="__module.model.model.8.m.0.m.0.cv1.conv/aten::_convolution/Reshape_compressed" type="Const" version="opset1">
			<data element_type="f16" shape="1, 60, 1, 1" offset="1274576" size="120" />
			<output>
				<port id="0" precision="FP16">
					<dim>1</dim>
					<dim>60</dim>
					<dim>1</dim>
					<dim>1</dim>
				</port>
			</output>
		</layer>
		<layer id="211" name="__module.model.model.8.m.0.m.0.cv1.conv/aten::_convolution/Reshape" type="Convert" version="opset1">
			<data destination_type="f32" />
			<rt_info>
				<attribute name="decompression" version="0" />
			</rt_info>
			<input>
				<port id="0" precision="FP16">
					<dim>1</dim>
					<dim>60</dim>
					<dim>1</dim>
					<dim>1</dim>
				</port>
			</input>
			<output>
				<port id="1" precision="FP32">
					<dim>1</dim>
					<dim>60</dim>
					<dim>1</dim>
					<dim>1</dim>
				</port>
			</output>
		</layer>
		<layer id="212" name="__module.model.model.8.m.0.m.0.cv1.conv/aten::_convolution/Add" type="Add" version="opset1">
			<data auto_broadcast="numpy" />
			<input>
				<port id="0" precision="FP32">
					<dim>-1</dim>
					<dim>60</dim>
					<dim>-1</dim>
					<dim>-1</dim>
				</port>
				<port id="1" precision="FP32">
					<dim>1</dim>
					<dim>60</dim>
					<dim>1</dim>
					<dim>1</dim>
				</port>
			</input>
			<output>
				<port id="2" precision="FP32" names="4484_1">
					<dim>-1</dim>
					<dim>60</dim>
					<dim>-1</dim>
					<dim>-1</dim>
				</port>
			</output>
		</layer>
		<layer id="213" name="__module.model.model.23.cv3.2.1.1.act/aten::silu_/Swish_28" type="Swish" version="opset4">
			<input>
				<port id="0" precision="FP32">
					<dim>-1</dim>
					<dim>60</dim>
					<dim>-1</dim>
					<dim>-1</dim>
				</port>
			</input>
			<output>
				<port id="1" precision="FP32" names="4484,input.103">
					<dim>-1</dim>
					<dim>60</dim>
					<dim>-1</dim>
					<dim>-1</dim>
				</port>
			</output>
		</layer>
		<layer id="214" name="self.model.model.8.m.0.m.0.cv2.conv.weight_compressed" type="Const" version="opset1">
			<data element_type="f16" shape="60, 60, 3, 3" offset="1274696" size="64800" />
			<output>
				<port id="0" precision="FP16" names="self.model.model.8.m.0.m.0.cv2.conv.weight">
					<dim>60</dim>
					<dim>60</dim>
					<dim>3</dim>
					<dim>3</dim>
				</port>
			</output>
		</layer>
		<layer id="215" name="self.model.model.8.m.0.m.0.cv2.conv.weight" type="Convert" version="opset1">
			<data destination_type="f32" />
			<rt_info>
				<attribute name="decompression" version="0" />
			</rt_info>
			<input>
				<port id="0" precision="FP16">
					<dim>60</dim>
					<dim>60</dim>
					<dim>3</dim>
					<dim>3</dim>
				</port>
			</input>
			<output>
				<port id="1" precision="FP32">
					<dim>60</dim>
					<dim>60</dim>
					<dim>3</dim>
					<dim>3</dim>
				</port>
			</output>
		</layer>
		<layer id="216" name="__module.model.model.8.m.0.m.0.cv2.conv/aten::_convolution/Convolution" type="Convolution" version="opset1">
			<data strides="1, 1" dilations="1, 1" pads_begin="1, 1" pads_end="1, 1" auto_pad="explicit" />
			<input>
				<port id="0" precision="FP32">
					<dim>-1</dim>
					<dim>60</dim>
					<dim>-1</dim>
					<dim>-1</dim>
				</port>
				<port id="1" precision="FP32">
					<dim>60</dim>
					<dim>60</dim>
					<dim>3</dim>
					<dim>3</dim>
				</port>
			</input>
			<output>
				<port id="2" precision="FP32">
					<dim>-1</dim>
					<dim>60</dim>
					<dim>-1</dim>
					<dim>-1</dim>
				</port>
			</output>
		</layer>
		<layer id="217" name="__module.model.model.8.m.0.m.0.cv2.conv/aten::_convolution/Reshape_compressed" type="Const" version="opset1">
			<data element_type="f16" shape="1, 60, 1, 1" offset="1339496" size="120" />
			<output>
				<port id="0" precision="FP16">
					<dim>1</dim>
					<dim>60</dim>
					<dim>1</dim>
					<dim>1</dim>
				</port>
			</output>
		</layer>
		<layer id="218" name="__module.model.model.8.m.0.m.0.cv2.conv/aten::_convolution/Reshape" type="Convert" version="opset1">
			<data destination_type="f32" />
			<rt_info>
				<attribute name="decompression" version="0" />
			</rt_info>
			<input>
				<port id="0" precision="FP16">
					<dim>1</dim>
					<dim>60</dim>
					<dim>1</dim>
					<dim>1</dim>
				</port>
			</input>
			<output>
				<port id="1" precision="FP32">
					<dim>1</dim>
					<dim>60</dim>
					<dim>1</dim>
					<dim>1</dim>
				</port>
			</output>
		</layer>
		<layer id="219" name="__module.model.model.8.m.0.m.0.cv2.conv/aten::_convolution/Add" type="Add" version="opset1">
			<data auto_broadcast="numpy" />
			<input>
				<port id="0" precision="FP32">
					<dim>-1</dim>
					<dim>60</dim>
					<dim>-1</dim>
					<dim>-1</dim>
				</port>
				<port id="1" precision="FP32">
					<dim>1</dim>
					<dim>60</dim>
					<dim>1</dim>
					<dim>1</dim>
				</port>
			</input>
			<output>
				<port id="2" precision="FP32" names="4493_1">
					<dim>-1</dim>
					<dim>60</dim>
					<dim>-1</dim>
					<dim>-1</dim>
				</port>
			</output>
		</layer>
		<layer id="220" name="__module.model.model.23.cv3.2.1.1.act/aten::silu_/Swish_29" type="Swish" version="opset4">
			<input>
				<port id="0" precision="FP32">
					<dim>-1</dim>
					<dim>60</dim>
					<dim>-1</dim>
					<dim>-1</dim>
				</port>
			</input>
			<output>
				<port id="1" precision="FP32" names="4493,input.107">
					<dim>-1</dim>
					<dim>60</dim>
					<dim>-1</dim>
					<dim>-1</dim>
				</port>
			</output>
		</layer>
		<layer id="221" name="__module.model.model.8.m.0.m.0/aten::add/Add" type="Add" version="opset1">
			<data auto_broadcast="numpy" />
			<input>
				<port id="0" precision="FP32">
					<dim>-1</dim>
					<dim>60</dim>
					<dim>-1</dim>
					<dim>-1</dim>
				</port>
				<port id="1" precision="FP32">
					<dim>-1</dim>
					<dim>60</dim>
					<dim>-1</dim>
					<dim>-1</dim>
				</port>
			</input>
			<output>
				<port id="2" precision="FP32" names="4495,input.109">
					<dim>-1</dim>
					<dim>60</dim>
					<dim>-1</dim>
					<dim>-1</dim>
				</port>
			</output>
		</layer>
		<layer id="222" name="self.model.model.8.m.0.m.1.cv1.conv.weight_compressed" type="Const" version="opset1">
			<data element_type="f16" shape="60, 60, 3, 3" offset="1339616" size="64800" />
			<output>
				<port id="0" precision="FP16" names="self.model.model.8.m.0.m.1.cv1.conv.weight">
					<dim>60</dim>
					<dim>60</dim>
					<dim>3</dim>
					<dim>3</dim>
				</port>
			</output>
		</layer>
		<layer id="223" name="self.model.model.8.m.0.m.1.cv1.conv.weight" type="Convert" version="opset1">
			<data destination_type="f32" />
			<rt_info>
				<attribute name="decompression" version="0" />
			</rt_info>
			<input>
				<port id="0" precision="FP16">
					<dim>60</dim>
					<dim>60</dim>
					<dim>3</dim>
					<dim>3</dim>
				</port>
			</input>
			<output>
				<port id="1" precision="FP32">
					<dim>60</dim>
					<dim>60</dim>
					<dim>3</dim>
					<dim>3</dim>
				</port>
			</output>
		</layer>
		<layer id="224" name="__module.model.model.8.m.0.m.1.cv1.conv/aten::_convolution/Convolution" type="Convolution" version="opset1">
			<data strides="1, 1" dilations="1, 1" pads_begin="1, 1" pads_end="1, 1" auto_pad="explicit" />
			<input>
				<port id="0" precision="FP32">
					<dim>-1</dim>
					<dim>60</dim>
					<dim>-1</dim>
					<dim>-1</dim>
				</port>
				<port id="1" precision="FP32">
					<dim>60</dim>
					<dim>60</dim>
					<dim>3</dim>
					<dim>3</dim>
				</port>
			</input>
			<output>
				<port id="2" precision="FP32">
					<dim>-1</dim>
					<dim>60</dim>
					<dim>-1</dim>
					<dim>-1</dim>
				</port>
			</output>
		</layer>
		<layer id="225" name="__module.model.model.8.m.0.m.1.cv1.conv/aten::_convolution/Reshape_compressed" type="Const" version="opset1">
			<data element_type="f16" shape="1, 60, 1, 1" offset="1404416" size="120" />
			<output>
				<port id="0" precision="FP16">
					<dim>1</dim>
					<dim>60</dim>
					<dim>1</dim>
					<dim>1</dim>
				</port>
			</output>
		</layer>
		<layer id="226" name="__module.model.model.8.m.0.m.1.cv1.conv/aten::_convolution/Reshape" type="Convert" version="opset1">
			<data destination_type="f32" />
			<rt_info>
				<attribute name="decompression" version="0" />
			</rt_info>
			<input>
				<port id="0" precision="FP16">
					<dim>1</dim>
					<dim>60</dim>
					<dim>1</dim>
					<dim>1</dim>
				</port>
			</input>
			<output>
				<port id="1" precision="FP32">
					<dim>1</dim>
					<dim>60</dim>
					<dim>1</dim>
					<dim>1</dim>
				</port>
			</output>
		</layer>
		<layer id="227" name="__module.model.model.8.m.0.m.1.cv1.conv/aten::_convolution/Add" type="Add" version="opset1">
			<data auto_broadcast="numpy" />
			<input>
				<port id="0" precision="FP32">
					<dim>-1</dim>
					<dim>60</dim>
					<dim>-1</dim>
					<dim>-1</dim>
				</port>
				<port id="1" precision="FP32">
					<dim>1</dim>
					<dim>60</dim>
					<dim>1</dim>
					<dim>1</dim>
				</port>
			</input>
			<output>
				<port id="2" precision="FP32" names="4505_1">
					<dim>-1</dim>
					<dim>60</dim>
					<dim>-1</dim>
					<dim>-1</dim>
				</port>
			</output>
		</layer>
		<layer id="228" name="__module.model.model.23.cv3.2.1.1.act/aten::silu_/Swish_30" type="Swish" version="opset4">
			<input>
				<port id="0" precision="FP32">
					<dim>-1</dim>
					<dim>60</dim>
					<dim>-1</dim>
					<dim>-1</dim>
				</port>
			</input>
			<output>
				<port id="1" precision="FP32" names="4505,input.111">
					<dim>-1</dim>
					<dim>60</dim>
					<dim>-1</dim>
					<dim>-1</dim>
				</port>
			</output>
		</layer>
		<layer id="229" name="self.model.model.8.m.0.m.1.cv2.conv.weight_compressed" type="Const" version="opset1">
			<data element_type="f16" shape="60, 60, 3, 3" offset="1404536" size="64800" />
			<output>
				<port id="0" precision="FP16" names="self.model.model.8.m.0.m.1.cv2.conv.weight">
					<dim>60</dim>
					<dim>60</dim>
					<dim>3</dim>
					<dim>3</dim>
				</port>
			</output>
		</layer>
		<layer id="230" name="self.model.model.8.m.0.m.1.cv2.conv.weight" type="Convert" version="opset1">
			<data destination_type="f32" />
			<rt_info>
				<attribute name="decompression" version="0" />
			</rt_info>
			<input>
				<port id="0" precision="FP16">
					<dim>60</dim>
					<dim>60</dim>
					<dim>3</dim>
					<dim>3</dim>
				</port>
			</input>
			<output>
				<port id="1" precision="FP32">
					<dim>60</dim>
					<dim>60</dim>
					<dim>3</dim>
					<dim>3</dim>
				</port>
			</output>
		</layer>
		<layer id="231" name="__module.model.model.8.m.0.m.1.cv2.conv/aten::_convolution/Convolution" type="Convolution" version="opset1">
			<data strides="1, 1" dilations="1, 1" pads_begin="1, 1" pads_end="1, 1" auto_pad="explicit" />
			<input>
				<port id="0" precision="FP32">
					<dim>-1</dim>
					<dim>60</dim>
					<dim>-1</dim>
					<dim>-1</dim>
				</port>
				<port id="1" precision="FP32">
					<dim>60</dim>
					<dim>60</dim>
					<dim>3</dim>
					<dim>3</dim>
				</port>
			</input>
			<output>
				<port id="2" precision="FP32">
					<dim>-1</dim>
					<dim>60</dim>
					<dim>-1</dim>
					<dim>-1</dim>
				</port>
			</output>
		</layer>
		<layer id="232" name="__module.model.model.8.m.0.m.1.cv2.conv/aten::_convolution/Reshape_compressed" type="Const" version="opset1">
			<data element_type="f16" shape="1, 60, 1, 1" offset="1469336" size="120" />
			<output>
				<port id="0" precision="FP16">
					<dim>1</dim>
					<dim>60</dim>
					<dim>1</dim>
					<dim>1</dim>
				</port>
			</output>
		</layer>
		<layer id="233" name="__module.model.model.8.m.0.m.1.cv2.conv/aten::_convolution/Reshape" type="Convert" version="opset1">
			<data destination_type="f32" />
			<rt_info>
				<attribute name="decompression" version="0" />
			</rt_info>
			<input>
				<port id="0" precision="FP16">
					<dim>1</dim>
					<dim>60</dim>
					<dim>1</dim>
					<dim>1</dim>
				</port>
			</input>
			<output>
				<port id="1" precision="FP32">
					<dim>1</dim>
					<dim>60</dim>
					<dim>1</dim>
					<dim>1</dim>
				</port>
			</output>
		</layer>
		<layer id="234" name="__module.model.model.8.m.0.m.1.cv2.conv/aten::_convolution/Add" type="Add" version="opset1">
			<data auto_broadcast="numpy" />
			<input>
				<port id="0" precision="FP32">
					<dim>-1</dim>
					<dim>60</dim>
					<dim>-1</dim>
					<dim>-1</dim>
				</port>
				<port id="1" precision="FP32">
					<dim>1</dim>
					<dim>60</dim>
					<dim>1</dim>
					<dim>1</dim>
				</port>
			</input>
			<output>
				<port id="2" precision="FP32" names="4514_1">
					<dim>-1</dim>
					<dim>60</dim>
					<dim>-1</dim>
					<dim>-1</dim>
				</port>
			</output>
		</layer>
		<layer id="235" name="__module.model.model.23.cv3.2.1.1.act/aten::silu_/Swish_31" type="Swish" version="opset4">
			<input>
				<port id="0" precision="FP32">
					<dim>-1</dim>
					<dim>60</dim>
					<dim>-1</dim>
					<dim>-1</dim>
				</port>
			</input>
			<output>
				<port id="1" precision="FP32" names="4514,input.115">
					<dim>-1</dim>
					<dim>60</dim>
					<dim>-1</dim>
					<dim>-1</dim>
				</port>
			</output>
		</layer>
		<layer id="236" name="__module.model.model.8.m.0.m.1/aten::add/Add" type="Add" version="opset1">
			<data auto_broadcast="numpy" />
			<input>
				<port id="0" precision="FP32">
					<dim>-1</dim>
					<dim>60</dim>
					<dim>-1</dim>
					<dim>-1</dim>
				</port>
				<port id="1" precision="FP32">
					<dim>-1</dim>
					<dim>60</dim>
					<dim>-1</dim>
					<dim>-1</dim>
				</port>
			</input>
			<output>
				<port id="2" precision="FP32" names="4516">
					<dim>-1</dim>
					<dim>60</dim>
					<dim>-1</dim>
					<dim>-1</dim>
				</port>
			</output>
		</layer>
		<layer id="237" name="self.model.model.8.m.0.cv2.conv.weight_compressed" type="Const" version="opset1">
			<data element_type="f16" shape="60, 121, 1, 1" offset="1469456" size="14520" />
			<output>
				<port id="0" precision="FP16" names="self.model.model.8.m.0.cv2.conv.weight">
					<dim>60</dim>
					<dim>121</dim>
					<dim>1</dim>
					<dim>1</dim>
				</port>
			</output>
		</layer>
		<layer id="238" name="self.model.model.8.m.0.cv2.conv.weight" type="Convert" version="opset1">
			<data destination_type="f32" />
			<rt_info>
				<attribute name="decompression" version="0" />
			</rt_info>
			<input>
				<port id="0" precision="FP16">
					<dim>60</dim>
					<dim>121</dim>
					<dim>1</dim>
					<dim>1</dim>
				</port>
			</input>
			<output>
				<port id="1" precision="FP32">
					<dim>60</dim>
					<dim>121</dim>
					<dim>1</dim>
					<dim>1</dim>
				</port>
			</output>
		</layer>
		<layer id="239" name="__module.model.model.8.m.0.cv2.conv/aten::_convolution/Convolution" type="Convolution" version="opset1">
			<data strides="1, 1" dilations="1, 1" pads_begin="0, 0" pads_end="0, 0" auto_pad="explicit" />
			<input>
				<port id="0" precision="FP32">
					<dim>-1</dim>
					<dim>121</dim>
					<dim>-1</dim>
					<dim>-1</dim>
				</port>
				<port id="1" precision="FP32">
					<dim>60</dim>
					<dim>121</dim>
					<dim>1</dim>
					<dim>1</dim>
				</port>
			</input>
			<output>
				<port id="2" precision="FP32">
					<dim>-1</dim>
					<dim>60</dim>
					<dim>-1</dim>
					<dim>-1</dim>
				</port>
			</output>
		</layer>
		<layer id="240" name="__module.model.model.8.m.0.cv2.conv/aten::_convolution/Reshape_compressed" type="Const" version="opset1">
			<data element_type="f16" shape="1, 60, 1, 1" offset="1483976" size="120" />
			<output>
				<port id="0" precision="FP16">
					<dim>1</dim>
					<dim>60</dim>
					<dim>1</dim>
					<dim>1</dim>
				</port>
			</output>
		</layer>
		<layer id="241" name="__module.model.model.8.m.0.cv2.conv/aten::_convolution/Reshape" type="Convert" version="opset1">
			<data destination_type="f32" />
			<rt_info>
				<attribute name="decompression" version="0" />
			</rt_info>
			<input>
				<port id="0" precision="FP16">
					<dim>1</dim>
					<dim>60</dim>
					<dim>1</dim>
					<dim>1</dim>
				</port>
			</input>
			<output>
				<port id="1" precision="FP32">
					<dim>1</dim>
					<dim>60</dim>
					<dim>1</dim>
					<dim>1</dim>
				</port>
			</output>
		</layer>
		<layer id="242" name="__module.model.model.8.m.0.cv2.conv/aten::_convolution/Add" type="Add" version="opset1">
			<data auto_broadcast="numpy" />
			<input>
				<port id="0" precision="FP32">
					<dim>-1</dim>
					<dim>60</dim>
					<dim>-1</dim>
					<dim>-1</dim>
				</port>
				<port id="1" precision="FP32">
					<dim>1</dim>
					<dim>60</dim>
					<dim>1</dim>
					<dim>1</dim>
				</port>
			</input>
			<output>
				<port id="2" precision="FP32" names="4524_1">
					<dim>-1</dim>
					<dim>60</dim>
					<dim>-1</dim>
					<dim>-1</dim>
				</port>
			</output>
		</layer>
		<layer id="243" name="__module.model.model.23.cv3.2.1.1.act/aten::silu_/Swish_32" type="Swish" version="opset4">
			<input>
				<port id="0" precision="FP32">
					<dim>-1</dim>
					<dim>60</dim>
					<dim>-1</dim>
					<dim>-1</dim>
				</port>
			</input>
			<output>
				<port id="1" precision="FP32" names="4524,input.117">
					<dim>-1</dim>
					<dim>60</dim>
					<dim>-1</dim>
					<dim>-1</dim>
				</port>
			</output>
		</layer>
		<layer id="244" name="__module.model.model.8.m.0/aten::cat/Concat" type="Concat" version="opset1">
			<data axis="1" />
			<input>
				<port id="0" precision="FP32">
					<dim>-1</dim>
					<dim>60</dim>
					<dim>-1</dim>
					<dim>-1</dim>
				</port>
				<port id="1" precision="FP32">
					<dim>-1</dim>
					<dim>60</dim>
					<dim>-1</dim>
					<dim>-1</dim>
				</port>
			</input>
			<output>
				<port id="2" precision="FP32" names="4527,input.119">
					<dim>-1</dim>
					<dim>120</dim>
					<dim>-1</dim>
					<dim>-1</dim>
				</port>
			</output>
		</layer>
		<layer id="245" name="self.model.model.8.m.0.cv3.conv.weight_compressed" type="Const" version="opset1">
			<data element_type="f16" shape="121, 120, 1, 1" offset="1484096" size="29040" />
			<output>
				<port id="0" precision="FP16" names="self.model.model.8.m.0.cv3.conv.weight">
					<dim>121</dim>
					<dim>120</dim>
					<dim>1</dim>
					<dim>1</dim>
				</port>
			</output>
		</layer>
		<layer id="246" name="self.model.model.8.m.0.cv3.conv.weight" type="Convert" version="opset1">
			<data destination_type="f32" />
			<rt_info>
				<attribute name="decompression" version="0" />
			</rt_info>
			<input>
				<port id="0" precision="FP16">
					<dim>121</dim>
					<dim>120</dim>
					<dim>1</dim>
					<dim>1</dim>
				</port>
			</input>
			<output>
				<port id="1" precision="FP32">
					<dim>121</dim>
					<dim>120</dim>
					<dim>1</dim>
					<dim>1</dim>
				</port>
			</output>
		</layer>
		<layer id="247" name="__module.model.model.8.m.0.cv3.conv/aten::_convolution/Convolution" type="Convolution" version="opset1">
			<data strides="1, 1" dilations="1, 1" pads_begin="0, 0" pads_end="0, 0" auto_pad="explicit" />
			<input>
				<port id="0" precision="FP32">
					<dim>-1</dim>
					<dim>120</dim>
					<dim>-1</dim>
					<dim>-1</dim>
				</port>
				<port id="1" precision="FP32">
					<dim>121</dim>
					<dim>120</dim>
					<dim>1</dim>
					<dim>1</dim>
				</port>
			</input>
			<output>
				<port id="2" precision="FP32">
					<dim>-1</dim>
					<dim>121</dim>
					<dim>-1</dim>
					<dim>-1</dim>
				</port>
			</output>
		</layer>
		<layer id="248" name="__module.model.model.8.m.0.cv3.conv/aten::_convolution/Reshape_compressed" type="Const" version="opset1">
			<data element_type="f16" shape="1, 121, 1, 1" offset="1513136" size="242" />
			<output>
				<port id="0" precision="FP16">
					<dim>1</dim>
					<dim>121</dim>
					<dim>1</dim>
					<dim>1</dim>
				</port>
			</output>
		</layer>
		<layer id="249" name="__module.model.model.8.m.0.cv3.conv/aten::_convolution/Reshape" type="Convert" version="opset1">
			<data destination_type="f32" />
			<rt_info>
				<attribute name="decompression" version="0" />
			</rt_info>
			<input>
				<port id="0" precision="FP16">
					<dim>1</dim>
					<dim>121</dim>
					<dim>1</dim>
					<dim>1</dim>
				</port>
			</input>
			<output>
				<port id="1" precision="FP32">
					<dim>1</dim>
					<dim>121</dim>
					<dim>1</dim>
					<dim>1</dim>
				</port>
			</output>
		</layer>
		<layer id="250" name="__module.model.model.8.m.0.cv3.conv/aten::_convolution/Add" type="Add" version="opset1">
			<data auto_broadcast="numpy" />
			<input>
				<port id="0" precision="FP32">
					<dim>-1</dim>
					<dim>121</dim>
					<dim>-1</dim>
					<dim>-1</dim>
				</port>
				<port id="1" precision="FP32">
					<dim>1</dim>
					<dim>121</dim>
					<dim>1</dim>
					<dim>1</dim>
				</port>
			</input>
			<output>
				<port id="2" precision="FP32" names="4535_1">
					<dim>-1</dim>
					<dim>121</dim>
					<dim>-1</dim>
					<dim>-1</dim>
				</port>
			</output>
		</layer>
		<layer id="251" name="__module.model.model.23.cv3.2.1.1.act/aten::silu_/Swish_33" type="Swish" version="opset4">
			<input>
				<port id="0" precision="FP32">
					<dim>-1</dim>
					<dim>121</dim>
					<dim>-1</dim>
					<dim>-1</dim>
				</port>
			</input>
			<output>
				<port id="1" precision="FP32" names="4535,input.121">
					<dim>-1</dim>
					<dim>121</dim>
					<dim>-1</dim>
					<dim>-1</dim>
				</port>
			</output>
		</layer>
		<layer id="252" name="__module.model.model.8/aten::cat/Concat" type="Concat" version="opset1">
			<data axis="1" />
			<input>
				<port id="0" precision="FP32">
					<dim>-1</dim>
					<dim>121</dim>
					<dim>-1</dim>
					<dim>-1</dim>
				</port>
				<port id="1" precision="FP32">
					<dim>-1</dim>
					<dim>121</dim>
					<dim>-1</dim>
					<dim>-1</dim>
				</port>
				<port id="2" precision="FP32">
					<dim>-1</dim>
					<dim>121</dim>
					<dim>-1</dim>
					<dim>-1</dim>
				</port>
			</input>
			<output>
				<port id="3" precision="FP32" names="4538,input.123">
					<dim>-1</dim>
					<dim>363</dim>
					<dim>-1</dim>
					<dim>-1</dim>
				</port>
			</output>
		</layer>
		<layer id="253" name="self.model.model.8.cv2.conv.weight_compressed" type="Const" version="opset1">
			<data element_type="f16" shape="243, 363, 1, 1" offset="1513378" size="176418" />
			<output>
				<port id="0" precision="FP16" names="self.model.model.8.cv2.conv.weight">
					<dim>243</dim>
					<dim>363</dim>
					<dim>1</dim>
					<dim>1</dim>
				</port>
			</output>
		</layer>
		<layer id="254" name="self.model.model.8.cv2.conv.weight" type="Convert" version="opset1">
			<data destination_type="f32" />
			<rt_info>
				<attribute name="decompression" version="0" />
			</rt_info>
			<input>
				<port id="0" precision="FP16">
					<dim>243</dim>
					<dim>363</dim>
					<dim>1</dim>
					<dim>1</dim>
				</port>
			</input>
			<output>
				<port id="1" precision="FP32">
					<dim>243</dim>
					<dim>363</dim>
					<dim>1</dim>
					<dim>1</dim>
				</port>
			</output>
		</layer>
		<layer id="255" name="__module.model.model.8.cv2.conv/aten::_convolution/Convolution" type="Convolution" version="opset1">
			<data strides="1, 1" dilations="1, 1" pads_begin="0, 0" pads_end="0, 0" auto_pad="explicit" />
			<input>
				<port id="0" precision="FP32">
					<dim>-1</dim>
					<dim>363</dim>
					<dim>-1</dim>
					<dim>-1</dim>
				</port>
				<port id="1" precision="FP32">
					<dim>243</dim>
					<dim>363</dim>
					<dim>1</dim>
					<dim>1</dim>
				</port>
			</input>
			<output>
				<port id="2" precision="FP32">
					<dim>-1</dim>
					<dim>243</dim>
					<dim>-1</dim>
					<dim>-1</dim>
				</port>
			</output>
		</layer>
		<layer id="256" name="__module.model.model.8.cv2.conv/aten::_convolution/Reshape_compressed" type="Const" version="opset1">
			<data element_type="f16" shape="1, 243, 1, 1" offset="1689796" size="486" />
			<output>
				<port id="0" precision="FP16">
					<dim>1</dim>
					<dim>243</dim>
					<dim>1</dim>
					<dim>1</dim>
				</port>
			</output>
		</layer>
		<layer id="257" name="__module.model.model.8.cv2.conv/aten::_convolution/Reshape" type="Convert" version="opset1">
			<data destination_type="f32" />
			<rt_info>
				<attribute name="decompression" version="0" />
			</rt_info>
			<input>
				<port id="0" precision="FP16">
					<dim>1</dim>
					<dim>243</dim>
					<dim>1</dim>
					<dim>1</dim>
				</port>
			</input>
			<output>
				<port id="1" precision="FP32">
					<dim>1</dim>
					<dim>243</dim>
					<dim>1</dim>
					<dim>1</dim>
				</port>
			</output>
		</layer>
		<layer id="258" name="__module.model.model.8.cv2.conv/aten::_convolution/Add" type="Add" version="opset1">
			<data auto_broadcast="numpy" />
			<input>
				<port id="0" precision="FP32">
					<dim>-1</dim>
					<dim>243</dim>
					<dim>-1</dim>
					<dim>-1</dim>
				</port>
				<port id="1" precision="FP32">
					<dim>1</dim>
					<dim>243</dim>
					<dim>1</dim>
					<dim>1</dim>
				</port>
			</input>
			<output>
				<port id="2" precision="FP32" names="4546_1">
					<dim>-1</dim>
					<dim>243</dim>
					<dim>-1</dim>
					<dim>-1</dim>
				</port>
			</output>
		</layer>
		<layer id="259" name="__module.model.model.23.cv3.2.1.1.act/aten::silu_/Swish_34" type="Swish" version="opset4">
			<input>
				<port id="0" precision="FP32">
					<dim>-1</dim>
					<dim>243</dim>
					<dim>-1</dim>
					<dim>-1</dim>
				</port>
			</input>
			<output>
				<port id="1" precision="FP32" names="4546,input.125">
					<dim>-1</dim>
					<dim>243</dim>
					<dim>-1</dim>
					<dim>-1</dim>
				</port>
			</output>
		</layer>
		<layer id="260" name="self.model.model.9.cv1.conv.weight_compressed" type="Const" version="opset1">
			<data element_type="f16" shape="121, 243, 1, 1" offset="1690282" size="58806" />
			<output>
				<port id="0" precision="FP16" names="self.model.model.9.cv1.conv.weight">
					<dim>121</dim>
					<dim>243</dim>
					<dim>1</dim>
					<dim>1</dim>
				</port>
			</output>
		</layer>
		<layer id="261" name="self.model.model.9.cv1.conv.weight" type="Convert" version="opset1">
			<data destination_type="f32" />
			<rt_info>
				<attribute name="decompression" version="0" />
			</rt_info>
			<input>
				<port id="0" precision="FP16">
					<dim>121</dim>
					<dim>243</dim>
					<dim>1</dim>
					<dim>1</dim>
				</port>
			</input>
			<output>
				<port id="1" precision="FP32">
					<dim>121</dim>
					<dim>243</dim>
					<dim>1</dim>
					<dim>1</dim>
				</port>
			</output>
		</layer>
		<layer id="262" name="__module.model.model.9.cv1.conv/aten::_convolution/Convolution" type="Convolution" version="opset1">
			<data strides="1, 1" dilations="1, 1" pads_begin="0, 0" pads_end="0, 0" auto_pad="explicit" />
			<input>
				<port id="0" precision="FP32">
					<dim>-1</dim>
					<dim>243</dim>
					<dim>-1</dim>
					<dim>-1</dim>
				</port>
				<port id="1" precision="FP32">
					<dim>121</dim>
					<dim>243</dim>
					<dim>1</dim>
					<dim>1</dim>
				</port>
			</input>
			<output>
				<port id="2" precision="FP32">
					<dim>-1</dim>
					<dim>121</dim>
					<dim>-1</dim>
					<dim>-1</dim>
				</port>
			</output>
		</layer>
		<layer id="263" name="__module.model.model.9.cv1.conv/aten::_convolution/Reshape_compressed" type="Const" version="opset1">
			<data element_type="f16" shape="1, 121, 1, 1" offset="1749088" size="242" />
			<output>
				<port id="0" precision="FP16">
					<dim>1</dim>
					<dim>121</dim>
					<dim>1</dim>
					<dim>1</dim>
				</port>
			</output>
		</layer>
		<layer id="264" name="__module.model.model.9.cv1.conv/aten::_convolution/Reshape" type="Convert" version="opset1">
			<data destination_type="f32" />
			<rt_info>
				<attribute name="decompression" version="0" />
			</rt_info>
			<input>
				<port id="0" precision="FP16">
					<dim>1</dim>
					<dim>121</dim>
					<dim>1</dim>
					<dim>1</dim>
				</port>
			</input>
			<output>
				<port id="1" precision="FP32">
					<dim>1</dim>
					<dim>121</dim>
					<dim>1</dim>
					<dim>1</dim>
				</port>
			</output>
		</layer>
		<layer id="265" name="__module.model.model.9.cv1.conv/aten::_convolution/Add" type="Add" version="opset1">
			<data auto_broadcast="numpy" />
			<input>
				<port id="0" precision="FP32">
					<dim>-1</dim>
					<dim>121</dim>
					<dim>-1</dim>
					<dim>-1</dim>
				</port>
				<port id="1" precision="FP32">
					<dim>1</dim>
					<dim>121</dim>
					<dim>1</dim>
					<dim>1</dim>
				</port>
			</input>
			<output>
				<port id="2" precision="FP32" names="4558_1">
					<dim>-1</dim>
					<dim>121</dim>
					<dim>-1</dim>
					<dim>-1</dim>
				</port>
			</output>
		</layer>
		<layer id="266" name="__module.model.model.23.cv3.2.1.1.act/aten::silu_/Swish_35" type="Swish" version="opset4">
			<input>
				<port id="0" precision="FP32">
					<dim>-1</dim>
					<dim>121</dim>
					<dim>-1</dim>
					<dim>-1</dim>
				</port>
			</input>
			<output>
				<port id="1" precision="FP32" names="4558,input.129">
					<dim>-1</dim>
					<dim>121</dim>
					<dim>-1</dim>
					<dim>-1</dim>
				</port>
			</output>
		</layer>
		<layer id="267" name="__module.model.model.9.m/aten::max_pool2d/MaxPool" type="MaxPool" version="opset14">
			<data strides="1, 1" dilations="1, 1" pads_begin="2, 2" pads_end="2, 2" kernel="5, 5" rounding_type="floor" auto_pad="explicit" index_element_type="i64" axis="2" />
			<input>
				<port id="0" precision="FP32">
					<dim>-1</dim>
					<dim>121</dim>
					<dim>-1</dim>
					<dim>-1</dim>
				</port>
			</input>
			<output>
				<port id="1" precision="FP32" names="4564,input.133">
					<dim>-1</dim>
					<dim>121</dim>
					<dim>-1</dim>
					<dim>-1</dim>
				</port>
				<port id="2" precision="I64">
					<dim>-1</dim>
					<dim>121</dim>
					<dim>-1</dim>
					<dim>-1</dim>
				</port>
			</output>
		</layer>
		<layer id="268" name="__module.model.model.9.m/aten::max_pool2d/MaxPool_1" type="MaxPool" version="opset14">
			<data strides="1, 1" dilations="1, 1" pads_begin="2, 2" pads_end="2, 2" kernel="5, 5" rounding_type="floor" auto_pad="explicit" index_element_type="i64" axis="2" />
			<input>
				<port id="0" precision="FP32">
					<dim>-1</dim>
					<dim>121</dim>
					<dim>-1</dim>
					<dim>-1</dim>
				</port>
			</input>
			<output>
				<port id="1" precision="FP32" names="4569,input.135">
					<dim>-1</dim>
					<dim>121</dim>
					<dim>-1</dim>
					<dim>-1</dim>
				</port>
				<port id="2" precision="I64">
					<dim>-1</dim>
					<dim>121</dim>
					<dim>-1</dim>
					<dim>-1</dim>
				</port>
			</output>
		</layer>
		<layer id="269" name="__module.model.model.9.m/aten::max_pool2d/MaxPool_2" type="MaxPool" version="opset14">
			<data strides="1, 1" dilations="1, 1" pads_begin="2, 2" pads_end="2, 2" kernel="5, 5" rounding_type="floor" auto_pad="explicit" index_element_type="i64" axis="2" />
			<input>
				<port id="0" precision="FP32">
					<dim>-1</dim>
					<dim>121</dim>
					<dim>-1</dim>
					<dim>-1</dim>
				</port>
			</input>
			<output>
				<port id="1" precision="FP32" names="4574">
					<dim>-1</dim>
					<dim>121</dim>
					<dim>-1</dim>
					<dim>-1</dim>
				</port>
				<port id="2" precision="I64">
					<dim>-1</dim>
					<dim>121</dim>
					<dim>-1</dim>
					<dim>-1</dim>
				</port>
			</output>
		</layer>
		<layer id="270" name="__module.model.model.9/aten::cat/Concat" type="Concat" version="opset1">
			<data axis="1" />
			<input>
				<port id="0" precision="FP32">
					<dim>-1</dim>
					<dim>121</dim>
					<dim>-1</dim>
					<dim>-1</dim>
				</port>
				<port id="1" precision="FP32">
					<dim>-1</dim>
					<dim>121</dim>
					<dim>-1</dim>
					<dim>-1</dim>
				</port>
				<port id="2" precision="FP32">
					<dim>-1</dim>
					<dim>121</dim>
					<dim>-1</dim>
					<dim>-1</dim>
				</port>
				<port id="3" precision="FP32">
					<dim>-1</dim>
					<dim>121</dim>
					<dim>-1</dim>
					<dim>-1</dim>
				</port>
			</input>
			<output>
				<port id="4" precision="FP32" names="4576,input.137">
					<dim>-1</dim>
					<dim>484</dim>
					<dim>-1</dim>
					<dim>-1</dim>
				</port>
			</output>
		</layer>
		<layer id="271" name="self.model.model.9.cv2.conv.weight_compressed" type="Const" version="opset1">
			<data element_type="f16" shape="243, 484, 1, 1" offset="1749330" size="235224" />
			<output>
				<port id="0" precision="FP16" names="self.model.model.9.cv2.conv.weight">
					<dim>243</dim>
					<dim>484</dim>
					<dim>1</dim>
					<dim>1</dim>
				</port>
			</output>
		</layer>
		<layer id="272" name="self.model.model.9.cv2.conv.weight" type="Convert" version="opset1">
			<data destination_type="f32" />
			<rt_info>
				<attribute name="decompression" version="0" />
			</rt_info>
			<input>
				<port id="0" precision="FP16">
					<dim>243</dim>
					<dim>484</dim>
					<dim>1</dim>
					<dim>1</dim>
				</port>
			</input>
			<output>
				<port id="1" precision="FP32">
					<dim>243</dim>
					<dim>484</dim>
					<dim>1</dim>
					<dim>1</dim>
				</port>
			</output>
		</layer>
		<layer id="273" name="__module.model.model.9.cv2.conv/aten::_convolution/Convolution" type="Convolution" version="opset1">
			<data strides="1, 1" dilations="1, 1" pads_begin="0, 0" pads_end="0, 0" auto_pad="explicit" />
			<input>
				<port id="0" precision="FP32">
					<dim>-1</dim>
					<dim>484</dim>
					<dim>-1</dim>
					<dim>-1</dim>
				</port>
				<port id="1" precision="FP32">
					<dim>243</dim>
					<dim>484</dim>
					<dim>1</dim>
					<dim>1</dim>
				</port>
			</input>
			<output>
				<port id="2" precision="FP32">
					<dim>-1</dim>
					<dim>243</dim>
					<dim>-1</dim>
					<dim>-1</dim>
				</port>
			</output>
		</layer>
		<layer id="274" name="__module.model.model.9.cv2.conv/aten::_convolution/Reshape_compressed" type="Const" version="opset1">
			<data element_type="f16" shape="1, 243, 1, 1" offset="1984554" size="486" />
			<output>
				<port id="0" precision="FP16">
					<dim>1</dim>
					<dim>243</dim>
					<dim>1</dim>
					<dim>1</dim>
				</port>
			</output>
		</layer>
		<layer id="275" name="__module.model.model.9.cv2.conv/aten::_convolution/Reshape" type="Convert" version="opset1">
			<data destination_type="f32" />
			<rt_info>
				<attribute name="decompression" version="0" />
			</rt_info>
			<input>
				<port id="0" precision="FP16">
					<dim>1</dim>
					<dim>243</dim>
					<dim>1</dim>
					<dim>1</dim>
				</port>
			</input>
			<output>
				<port id="1" precision="FP32">
					<dim>1</dim>
					<dim>243</dim>
					<dim>1</dim>
					<dim>1</dim>
				</port>
			</output>
		</layer>
		<layer id="276" name="__module.model.model.9.cv2.conv/aten::_convolution/Add" type="Add" version="opset1">
			<data auto_broadcast="numpy" />
			<input>
				<port id="0" precision="FP32">
					<dim>-1</dim>
					<dim>243</dim>
					<dim>-1</dim>
					<dim>-1</dim>
				</port>
				<port id="1" precision="FP32">
					<dim>1</dim>
					<dim>243</dim>
					<dim>1</dim>
					<dim>1</dim>
				</port>
			</input>
			<output>
				<port id="2" precision="FP32" names="4584_1">
					<dim>-1</dim>
					<dim>243</dim>
					<dim>-1</dim>
					<dim>-1</dim>
				</port>
			</output>
		</layer>
		<layer id="277" name="__module.model.model.23.cv3.2.1.1.act/aten::silu_/Swish_36" type="Swish" version="opset4">
			<input>
				<port id="0" precision="FP32">
					<dim>-1</dim>
					<dim>243</dim>
					<dim>-1</dim>
					<dim>-1</dim>
				</port>
			</input>
			<output>
				<port id="1" precision="FP32" names="4584,input.139">
					<dim>-1</dim>
					<dim>243</dim>
					<dim>-1</dim>
					<dim>-1</dim>
				</port>
			</output>
		</layer>
		<layer id="278" name="self.model.model.10.cv1.conv.weight_compressed" type="Const" version="opset1">
			<data element_type="f16" shape="256, 243, 1, 1" offset="1985040" size="124416" />
			<output>
				<port id="0" precision="FP16" names="self.model.model.10.cv1.conv.weight">
					<dim>256</dim>
					<dim>243</dim>
					<dim>1</dim>
					<dim>1</dim>
				</port>
			</output>
		</layer>
		<layer id="279" name="self.model.model.10.cv1.conv.weight" type="Convert" version="opset1">
			<data destination_type="f32" />
			<rt_info>
				<attribute name="decompression" version="0" />
			</rt_info>
			<input>
				<port id="0" precision="FP16">
					<dim>256</dim>
					<dim>243</dim>
					<dim>1</dim>
					<dim>1</dim>
				</port>
			</input>
			<output>
				<port id="1" precision="FP32">
					<dim>256</dim>
					<dim>243</dim>
					<dim>1</dim>
					<dim>1</dim>
				</port>
			</output>
		</layer>
		<layer id="280" name="__module.model.model.10.cv1.conv/aten::_convolution/Convolution" type="Convolution" version="opset1">
			<data strides="1, 1" dilations="1, 1" pads_begin="0, 0" pads_end="0, 0" auto_pad="explicit" />
			<input>
				<port id="0" precision="FP32">
					<dim>-1</dim>
					<dim>243</dim>
					<dim>-1</dim>
					<dim>-1</dim>
				</port>
				<port id="1" precision="FP32">
					<dim>256</dim>
					<dim>243</dim>
					<dim>1</dim>
					<dim>1</dim>
				</port>
			</input>
			<output>
				<port id="2" precision="FP32">
					<dim>-1</dim>
					<dim>256</dim>
					<dim>-1</dim>
					<dim>-1</dim>
				</port>
			</output>
		</layer>
		<layer id="281" name="__module.model.model.10.cv1.conv/aten::_convolution/Reshape_compressed" type="Const" version="opset1">
			<data element_type="f16" shape="1, 256, 1, 1" offset="2109456" size="512" />
			<output>
				<port id="0" precision="FP16">
					<dim>1</dim>
					<dim>256</dim>
					<dim>1</dim>
					<dim>1</dim>
				</port>
			</output>
		</layer>
		<layer id="282" name="__module.model.model.10.cv1.conv/aten::_convolution/Reshape" type="Convert" version="opset1">
			<data destination_type="f32" />
			<rt_info>
				<attribute name="decompression" version="0" />
			</rt_info>
			<input>
				<port id="0" precision="FP16">
					<dim>1</dim>
					<dim>256</dim>
					<dim>1</dim>
					<dim>1</dim>
				</port>
			</input>
			<output>
				<port id="1" precision="FP32">
					<dim>1</dim>
					<dim>256</dim>
					<dim>1</dim>
					<dim>1</dim>
				</port>
			</output>
		</layer>
		<layer id="283" name="__module.model.model.10.cv1.conv/aten::_convolution/Add" type="Add" version="opset1">
			<data auto_broadcast="numpy" />
			<input>
				<port id="0" precision="FP32">
					<dim>-1</dim>
					<dim>256</dim>
					<dim>-1</dim>
					<dim>-1</dim>
				</port>
				<port id="1" precision="FP32">
					<dim>1</dim>
					<dim>256</dim>
					<dim>1</dim>
					<dim>1</dim>
				</port>
			</input>
			<output>
				<port id="2" precision="FP32" names="4596_1">
					<dim>-1</dim>
					<dim>256</dim>
					<dim>-1</dim>
					<dim>-1</dim>
				</port>
			</output>
		</layer>
		<layer id="284" name="__module.model.model.23.cv3.2.1.1.act/aten::silu_/Swish_37" type="Swish" version="opset4">
			<input>
				<port id="0" precision="FP32">
					<dim>-1</dim>
					<dim>256</dim>
					<dim>-1</dim>
					<dim>-1</dim>
				</port>
			</input>
			<output>
				<port id="1" precision="FP32" names="4596,input.143">
					<dim>-1</dim>
					<dim>256</dim>
					<dim>-1</dim>
					<dim>-1</dim>
				</port>
			</output>
		</layer>
		<layer id="285" name="4114" type="Const" version="opset1">
			<data element_type="i64" shape="" offset="2109968" size="8" />
			<output>
				<port id="0" precision="I64" names="4114" />
			</output>
		</layer>
		<layer id="286" name="Constant_1984" type="Const" version="opset1">
			<data element_type="i64" shape="2" offset="2109976" size="16" />
			<output>
				<port id="0" precision="I64" names="4598">
					<dim>2</dim>
				</port>
			</output>
		</layer>
		<layer id="287" name="__module.model.model.10/aten::split_with_sizes/VariadicSplit" type="VariadicSplit" version="opset1">
			<input>
				<port id="0" precision="FP32">
					<dim>-1</dim>
					<dim>256</dim>
					<dim>-1</dim>
					<dim>-1</dim>
				</port>
				<port id="1" precision="I64" />
				<port id="2" precision="I64">
					<dim>2</dim>
				</port>
			</input>
			<output>
				<port id="3" precision="FP32" names="4600,a.1">
					<dim>-1</dim>
					<dim>128</dim>
					<dim>-1</dim>
					<dim>-1</dim>
				</port>
				<port id="4" precision="FP32" names="4601,x.3">
					<dim>-1</dim>
					<dim>128</dim>
					<dim>-1</dim>
					<dim>-1</dim>
				</port>
			</output>
		</layer>
		<layer id="288" name="ShapeOf_170107" type="ShapeOf" version="opset3">
			<data output_type="i64" />
			<input>
				<port id="0" precision="FP32">
					<dim>-1</dim>
					<dim>128</dim>
					<dim>-1</dim>
					<dim>-1</dim>
				</port>
			</input>
			<output>
				<port id="1" precision="I64">
					<dim>4</dim>
				</port>
			</output>
		</layer>
		<layer id="289" name="Constant_170108" type="Const" version="opset1">
			<data element_type="i64" shape="1" offset="2109992" size="8" />
			<rt_info>
				<attribute name="precise" version="0" />
			</rt_info>
			<output>
				<port id="0" precision="I64">
					<dim>1</dim>
				</port>
			</output>
		</layer>
		<layer id="290" name="Constant_170109" type="Const" version="opset1">
			<data element_type="i64" shape="" offset="2109992" size="8" />
			<rt_info>
				<attribute name="precise" version="0" />
			</rt_info>
			<output>
				<port id="0" precision="I64" />
			</output>
		</layer>
		<layer id="291" name="Gather_170110" type="Gather" version="opset8">
			<data batch_dims="0" />
			<input>
				<port id="0" precision="I64">
					<dim>4</dim>
				</port>
				<port id="1" precision="I64">
					<dim>1</dim>
				</port>
				<port id="2" precision="I64" />
			</input>
			<output>
				<port id="3" precision="I64" names="4608,5250,5337">
					<dim>1</dim>
				</port>
			</output>
		</layer>
		<layer id="292" name="aten::zeros/Convert_1_compressed" type="Const" version="opset1">
			<data element_type="f16" shape="" offset="0" size="2" />
			<output>
				<port id="0" precision="FP16" />
			</output>
		</layer>
		<layer id="293" name="aten::zeros/Convert_1" type="Convert" version="opset1">
			<data destination_type="f32" />
			<rt_info>
				<attribute name="decompression" version="0" />
			</rt_info>
			<input>
				<port id="0" precision="FP16" />
			</input>
			<output>
				<port id="1" precision="FP32" />
			</output>
		</layer>
		<layer id="294" name="18" type="Const" version="opset1">
			<data element_type="i64" shape="" offset="2110000" size="8" />
			<rt_info>
				<attribute name="precise" version="0" />
			</rt_info>
			<output>
				<port id="0" precision="I64" names="18" />
			</output>
		</layer>
		<layer id="295" name="Squeeze_170244" type="Squeeze" version="opset1">
			<input>
				<port id="0" precision="I64">
					<dim>1</dim>
				</port>
			</input>
			<output>
				<port id="1" precision="I64" names="5,7" />
			</output>
		</layer>
		<layer id="296" name="aten::rsub/Subtract" type="Subtract" version="opset1">
			<data auto_broadcast="numpy" />
			<input>
				<port id="0" precision="I64" />
				<port id="1" precision="I64" />
			</input>
			<output>
				<port id="2" precision="I64" names="20,27" />
			</output>
		</layer>
		<layer id="297" name="aten::to/Convert_1" type="Const" version="opset1">
			<data element_type="i64" shape="" offset="2109992" size="8" />
			<rt_info>
				<attribute name="precise" version="0" />
			</rt_info>
			<output>
				<port id="0" precision="I64" names="35" />
			</output>
		</layer>
		<layer id="298" name="aten::max/Maximum" type="Maximum" version="opset1">
			<data auto_broadcast="numpy" />
			<input>
				<port id="0" precision="I64" />
				<port id="1" precision="I64" />
			</input>
			<output>
				<port id="2" precision="I64" names="37,38" />
			</output>
		</layer>
		<layer id="299" name="Constant_6451" type="Const" version="opset1">
			<data element_type="i32" shape="" offset="2110008" size="4" />
			<rt_info>
				<attribute name="precise" version="0" />
			</rt_info>
			<output>
				<port id="0" precision="I32" />
			</output>
		</layer>
		<layer id="300" name="Unsqueeze_6454" type="Unsqueeze" version="opset1">
			<input>
				<port id="0" precision="I64" />
				<port id="1" precision="I32" />
			</input>
			<output>
				<port id="2" precision="I64">
					<dim>1</dim>
				</port>
			</output>
		</layer>
		<layer id="301" name="self.model.model.10.m.0.attn.qkv.conv.weight_compressed" type="Const" version="opset1">
			<data element_type="f16" shape="256, 128, 1, 1" offset="2110012" size="65536" />
			<output>
				<port id="0" precision="FP16" names="self.model.model.10.m.0.attn.qkv.conv.weight">
					<dim>256</dim>
					<dim>128</dim>
					<dim>1</dim>
					<dim>1</dim>
				</port>
			</output>
		</layer>
		<layer id="302" name="self.model.model.10.m.0.attn.qkv.conv.weight" type="Convert" version="opset1">
			<data destination_type="f32" />
			<rt_info>
				<attribute name="decompression" version="0" />
			</rt_info>
			<input>
				<port id="0" precision="FP16">
					<dim>256</dim>
					<dim>128</dim>
					<dim>1</dim>
					<dim>1</dim>
				</port>
			</input>
			<output>
				<port id="1" precision="FP32">
					<dim>256</dim>
					<dim>128</dim>
					<dim>1</dim>
					<dim>1</dim>
				</port>
			</output>
		</layer>
		<layer id="303" name="__module.model.model.10.m.0.attn.qkv.conv/aten::_convolution/Convolution" type="Convolution" version="opset1">
			<data strides="1, 1" dilations="1, 1" pads_begin="0, 0" pads_end="0, 0" auto_pad="explicit" />
			<input>
				<port id="0" precision="FP32">
					<dim>-1</dim>
					<dim>128</dim>
					<dim>-1</dim>
					<dim>-1</dim>
				</port>
				<port id="1" precision="FP32">
					<dim>256</dim>
					<dim>128</dim>
					<dim>1</dim>
					<dim>1</dim>
				</port>
			</input>
			<output>
				<port id="2" precision="FP32">
					<dim>-1</dim>
					<dim>256</dim>
					<dim>-1</dim>
					<dim>-1</dim>
				</port>
			</output>
		</layer>
		<layer id="304" name="__module.model.model.10.m.0.attn.qkv.conv/aten::_convolution/Reshape_compressed" type="Const" version="opset1">
…
		<edge from-layer="3573" from-port="3" to-layer="3575" to-port="0" />
		<edge from-layer="3574" from-port="0" to-layer="3575" to-port="1" />
		<edge from-layer="3575" from-port="2" to-layer="3668" to-port="1" />
		<edge from-layer="3576" from-port="0" to-layer="3578" to-port="1" />
		<edge from-layer="3577" from-port="0" to-layer="3578" to-port="2" />
		<edge from-layer="3578" from-port="3" to-layer="3588" to-port="0" />
		<edge from-layer="3579" from-port="0" to-layer="3581" to-port="1" />
		<edge from-layer="3580" from-port="0" to-layer="3581" to-port="2" />
		<edge from-layer="3581" from-port="3" to-layer="3584" to-port="0" />
		<edge from-layer="3581" from-port="3" to-layer="3609" to-port="0" />
		<edge from-layer="3582" from-port="0" to-layer="3583" to-port="0" />
		<edge from-layer="3583" from-port="1" to-layer="3584" to-port="1" />
		<edge from-layer="3584" from-port="2" to-layer="3585" to-port="0" />
		<edge from-layer="3585" from-port="1" to-layer="3587" to-port="0" />
		<edge from-layer="3586" from-port="0" to-layer="3587" to-port="1" />
		<edge from-layer="3587" from-port="2" to-layer="3600" to-port="1" />
		<edge from-layer="3587" from-port="2" to-layer="3588" to-port="1" />
		<edge from-layer="3587" from-port="2" to-layer="3609" to-port="1" />
		<edge from-layer="3588" from-port="2" to-layer="3591" to-port="0" />
		<edge from-layer="3588" from-port="2" to-layer="3629" to-port="0" />
		<edge from-layer="3589" from-port="0" to-layer="3590" to-port="0" />
		<edge from-layer="3590" from-port="1" to-layer="3591" to-port="1" />
		<edge from-layer="3591" from-port="2" to-layer="3596" to-port="0" />
		<edge from-layer="3591" from-port="2" to-layer="3603" to-port="0" />
		<edge from-layer="3592" from-port="0" to-layer="3596" to-port="1" />
		<edge from-layer="3593" from-port="0" to-layer="3596" to-port="2" />
		<edge from-layer="3594" from-port="0" to-layer="3596" to-port="3" />
		<edge from-layer="3595" from-port="0" to-layer="3596" to-port="4" />
		<edge from-layer="3596" from-port="5" to-layer="3606" to-port="0" />
		<edge from-layer="3597" from-port="0" to-layer="3599" to-port="1" />
		<edge from-layer="3598" from-port="0" to-layer="3599" to-port="2" />
		<edge from-layer="3599" from-port="3" to-layer="3600" to-port="0" />
		<edge from-layer="3600" from-port="2" to-layer="3602" to-port="0" />
		<edge from-layer="3600" from-port="2" to-layer="3635" to-port="0" />
		<edge from-layer="3601" from-port="0" to-layer="3602" to-port="1" />
		<edge from-layer="3602" from-port="2" to-layer="3604" to-port="0" />
		<edge from-layer="3603" from-port="1" to-layer="3604" to-port="1" />
		<edge from-layer="3604" from-port="2" to-layer="3605" to-port="0" />
		<edge from-layer="3605" from-port="1" to-layer="3606" to-port="1" />
		<edge from-layer="3606" from-port="2" to-layer="3608" to-port="0" />
		<edge from-layer="3607" from-port="0" to-layer="3608" to-port="1" />
		<edge from-layer="3608" from-port="2" to-layer="3616" to-port="0" />
		<edge from-layer="3609" from-port="2" to-layer="3631" to-port="0" />
		<edge from-layer="3609" from-port="2" to-layer="3611" to-port="0" />
		<edge from-layer="3610" from-port="0" to-layer="3611" to-port="1" />
		<edge from-layer="3611" from-port="2" to-layer="3616" to-port="1" />
		<edge from-layer="3612" from-port="0" to-layer="3616" to-port="2" />
		<edge from-layer="3613" from-port="0" to-layer="3614" to-port="0" />
		<edge from-layer="3614" from-port="1" to-layer="3616" to-port="3" />
		<edge from-layer="3615" from-port="0" to-layer="3616" to-port="4" />
		<edge from-layer="3616" from-port="5" to-layer="3619" to-port="0" />
		<edge from-layer="3617" from-port="0" to-layer="3619" to-port="1" />
		<edge from-layer="3618" from-port="0" to-layer="3620" to-port="1" />
		<edge from-layer="3618" from-port="0" to-layer="3619" to-port="2" />
		<edge from-layer="3619" from-port="3" to-layer="3620" to-port="0" />
		<edge from-layer="3620" from-port="2" to-layer="3625" to-port="0" />
		<edge from-layer="3621" from-port="0" to-layer="3625" to-port="1" />
		<edge from-layer="3622" from-port="0" to-layer="3625" to-port="2" />
		<edge from-layer="3623" from-port="0" to-layer="3625" to-port="3" />
		<edge from-layer="3624" from-port="0" to-layer="3625" to-port="4" />
		<edge from-layer="3625" from-port="5" to-layer="3626" to-port="0" />
		<edge from-layer="3626" from-port="1" to-layer="3627" to-port="0" />
		<edge from-layer="3627" from-port="1" to-layer="3629" to-port="1" />
		<edge from-layer="3627" from-port="1" to-layer="3631" to-port="1" />
		<edge from-layer="3627" from-port="1" to-layer="3635" to-port="1" />
		<edge from-layer="3628" from-port="0" to-layer="3629" to-port="2" />
		<edge from-layer="3629" from-port="3" to-layer="3639" to-port="0" />
		<edge from-layer="3630" from-port="0" to-layer="3631" to-port="2" />
		<edge from-layer="3631" from-port="3" to-layer="3633" to-port="0" />
		<edge from-layer="3632" from-port="0" to-layer="3633" to-port="1" />
		<edge from-layer="3633" from-port="2" to-layer="3639" to-port="1" />
		<edge from-layer="3634" from-port="0" to-layer="3635" to-port="2" />
		<edge from-layer="3635" from-port="3" to-layer="3637" to-port="0" />
		<edge from-layer="3636" from-port="0" to-layer="3637" to-port="1" />
		<edge from-layer="3637" from-port="2" to-layer="3638" to-port="0" />
		<edge from-layer="3638" from-port="1" to-layer="3639" to-port="2" />
		<edge from-layer="3639" from-port="3" to-layer="3664" to-port="0" />
		<edge from-layer="3639" from-port="3" to-layer="3644" to-port="0" />
		<edge from-layer="3640" from-port="0" to-layer="3651" to-port="0" />
		<edge from-layer="3641" from-port="0" to-layer="3651" to-port="1" />
		<edge from-layer="3642" from-port="0" to-layer="3651" to-port="2" />
		<edge from-layer="3643" from-port="0" to-layer="3648" to-port="0" />
		<edge from-layer="3644" from-port="1" to-layer="3647" to-port="0" />
		<edge from-layer="3645" from-port="0" to-layer="3647" to-port="1" />
		<edge from-layer="3646" from-port="0" to-layer="3647" to-port="2" />
		<edge from-layer="3647" from-port="3" to-layer="3648" to-port="1" />
		<edge from-layer="3648" from-port="2" to-layer="3650" to-port="0" />
		<edge from-layer="3649" from-port="0" to-layer="3650" to-port="1" />
		<edge from-layer="3650" from-port="2" to-layer="3651" to-port="3" />
		<edge from-layer="3651" from-port="4" to-layer="3653" to-port="0" />
		<edge from-layer="3652" from-port="0" to-layer="3653" to-port="1" />
		<edge from-layer="3653" from-port="2" to-layer="3655" to-port="0" />
		<edge from-layer="3654" from-port="0" to-layer="3655" to-port="1" />
		<edge from-layer="3654" from-port="0" to-layer="3656" to-port="1" />
		<edge from-layer="3654" from-port="0" to-layer="3660" to-port="1" />
		<edge from-layer="3655" from-port="2" to-layer="3656" to-port="0" />
		<edge from-layer="3655" from-port="3" to-layer="3660" to-port="0" />
		<edge from-layer="3656" from-port="2" to-layer="3659" to-port="0" />
		<edge from-layer="3657" from-port="0" to-layer="3661" to-port="1" />
		<edge from-layer="3657" from-port="0" to-layer="3659" to-port="1" />
		<edge from-layer="3658" from-port="0" to-layer="3661" to-port="2" />
		<edge from-layer="3658" from-port="0" to-layer="3659" to-port="2" />
		<edge from-layer="3659" from-port="3" to-layer="3664" to-port="1" />
		<edge from-layer="3660" from-port="2" to-layer="3661" to-port="0" />
		<edge from-layer="3661" from-port="3" to-layer="3664" to-port="2" />
		<edge from-layer="3662" from-port="0" to-layer="3663" to-port="0" />
		<edge from-layer="3663" from-port="1" to-layer="3664" to-port="3" />
		<edge from-layer="3664" from-port="4" to-layer="3665" to-port="0" />
		<edge from-layer="3665" from-port="2" to-layer="3667" to-port="0" />
		<edge from-layer="3666" from-port="0" to-layer="3667" to-port="1" />
		<edge from-layer="3667" from-port="2" to-layer="3668" to-port="2" />
		<edge from-layer="3668" from-port="3" to-layer="3670" to-port="0" />
		<edge from-layer="3669" from-port="0" to-layer="3670" to-port="1" />
		<edge from-layer="3670" from-port="2" to-layer="3768" to-port="0" />
		<edge from-layer="3671" from-port="0" to-layer="3673" to-port="1" />
		<edge from-layer="3672" from-port="0" to-layer="3673" to-port="2" />
		<edge from-layer="3673" from-port="3" to-layer="3675" to-port="0" />
		<edge from-layer="3674" from-port="0" to-layer="3675" to-port="1" />
		<edge from-layer="3675" from-port="2" to-layer="3768" to-port="1" />
		<edge from-layer="3676" from-port="0" to-layer="3678" to-port="1" />
		<edge from-layer="3677" from-port="0" to-layer="3678" to-port="2" />
		<edge from-layer="3678" from-port="3" to-layer="3688" to-port="0" />
		<edge from-layer="3679" from-port="0" to-layer="3681" to-port="1" />
		<edge from-layer="3680" from-port="0" to-layer="3681" to-port="2" />
		<edge from-layer="3681" from-port="3" to-layer="3684" to-port="0" />
		<edge from-layer="3681" from-port="3" to-layer="3709" to-port="0" />
		<edge from-layer="3682" from-port="0" to-layer="3683" to-port="0" />
		<edge from-layer="3683" from-port="1" to-layer="3684" to-port="1" />
		<edge from-layer="3684" from-port="2" to-layer="3685" to-port="0" />
		<edge from-layer="3685" from-port="1" to-layer="3687" to-port="0" />
		<edge from-layer="3686" from-port="0" to-layer="3687" to-port="1" />
		<edge from-layer="3687" from-port="2" to-layer="3700" to-port="1" />
		<edge from-layer="3687" from-port="2" to-layer="3709" to-port="1" />
		<edge from-layer="3687" from-port="2" to-layer="3688" to-port="1" />
		<edge from-layer="3688" from-port="2" to-layer="3691" to-port="0" />
		<edge from-layer="3688" from-port="2" to-layer="3729" to-port="0" />
		<edge from-layer="3689" from-port="0" to-layer="3690" to-port="0" />
		<edge from-layer="3690" from-port="1" to-layer="3691" to-port="1" />
		<edge from-layer="3691" from-port="2" to-layer="3696" to-port="0" />
		<edge from-layer="3691" from-port="2" to-layer="3703" to-port="0" />
		<edge from-layer="3692" from-port="0" to-layer="3696" to-port="1" />
		<edge from-layer="3693" from-port="0" to-layer="3696" to-port="2" />
		<edge from-layer="3694" from-port="0" to-layer="3696" to-port="3" />
		<edge from-layer="3695" from-port="0" to-layer="3696" to-port="4" />
		<edge from-layer="3696" from-port="5" to-layer="3706" to-port="0" />
		<edge from-layer="3697" from-port="0" to-layer="3699" to-port="1" />
		<edge from-layer="3698" from-port="0" to-layer="3699" to-port="2" />
		<edge from-layer="3699" from-port="3" to-layer="3700" to-port="0" />
		<edge from-layer="3700" from-port="2" to-layer="3735" to-port="0" />
		<edge from-layer="3700" from-port="2" to-layer="3702" to-port="0" />
		<edge from-layer="3701" from-port="0" to-layer="3702" to-port="1" />
		<edge from-layer="3702" from-port="2" to-layer="3704" to-port="0" />
		<edge from-layer="3703" from-port="1" to-layer="3704" to-port="1" />
		<edge from-layer="3704" from-port="2" to-layer="3705" to-port="0" />
		<edge from-layer="3705" from-port="1" to-layer="3706" to-port="1" />
		<edge from-layer="3706" from-port="2" to-layer="3708" to-port="0" />
		<edge from-layer="3707" from-port="0" to-layer="3708" to-port="1" />
		<edge from-layer="3708" from-port="2" to-layer="3716" to-port="0" />
		<edge from-layer="3709" from-port="2" to-layer="3731" to-port="0" />
		<edge from-layer="3709" from-port="2" to-layer="3711" to-port="0" />
		<edge from-layer="3710" from-port="0" to-layer="3711" to-port="1" />
		<edge from-layer="3711" from-port="2" to-layer="3716" to-port="1" />
		<edge from-layer="3712" from-port="0" to-layer="3716" to-port="2" />
		<edge from-layer="3713" from-port="0" to-layer="3714" to-port="0" />
		<edge from-layer="3714" from-port="1" to-layer="3716" to-port="3" />
		<edge from-layer="3715" from-port="0" to-layer="3716" to-port="4" />
		<edge from-layer="3716" from-port="5" to-layer="3719" to-port="0" />
		<edge from-layer="3717" from-port="0" to-layer="3719" to-port="1" />
		<edge from-layer="3718" from-port="0" to-layer="3720" to-port="1" />
		<edge from-layer="3718" from-port="0" to-layer="3719" to-port="2" />
		<edge from-layer="3719" from-port="3" to-layer="3720" to-port="0" />
		<edge from-layer="3720" from-port="2" to-layer="3725" to-port="0" />
		<edge from-layer="3721" from-port="0" to-layer="3725" to-port="1" />
		<edge from-layer="3722" from-port="0" to-layer="3725" to-port="2" />
		<edge from-layer="3723" from-port="0" to-layer="3725" to-port="3" />
		<edge from-layer="3724" from-port="0" to-layer="3725" to-port="4" />
		<edge from-layer="3725" from-port="5" to-layer="3726" to-port="0" />
		<edge from-layer="3726" from-port="1" to-layer="3727" to-port="0" />
		<edge from-layer="3727" from-port="1" to-layer="3729" to-port="1" />
		<edge from-layer="3727" from-port="1" to-layer="3731" to-port="1" />
		<edge from-layer="3727" from-port="1" to-layer="3735" to-port="1" />
		<edge from-layer="3728" from-port="0" to-layer="3729" to-port="2" />
		<edge from-layer="3729" from-port="3" to-layer="3739" to-port="0" />
		<edge from-layer="3730" from-port="0" to-layer="3731" to-port="2" />
		<edge from-layer="3731" from-port="3" to-layer="3733" to-port="0" />
		<edge from-layer="3732" from-port="0" to-layer="3733" to-port="1" />
		<edge from-layer="3733" from-port="2" to-layer="3739" to-port="1" />
		<edge from-layer="3734" from-port="0" to-layer="3735" to-port="2" />
		<edge from-layer="3735" from-port="3" to-layer="3737" to-port="0" />
		<edge from-layer="3736" from-port="0" to-layer="3737" to-port="1" />
		<edge from-layer="3737" from-port="2" to-layer="3738" to-port="0" />
		<edge from-layer="3738" from-port="1" to-layer="3739" to-port="2" />
		<edge from-layer="3739" from-port="3" to-layer="3744" to-port="0" />
		<edge from-layer="3739" from-port="3" to-layer="3764" to-port="0" />
		<edge from-layer="3740" from-port="0" to-layer="3751" to-port="0" />
		<edge from-layer="3741" from-port="0" to-layer="3751" to-port="1" />
		<edge from-layer="3742" from-port="0" to-layer="3751" to-port="2" />
		<edge from-layer="3743" from-port="0" to-layer="3748" to-port="0" />
		<edge from-layer="3744" from-port="1" to-layer="3747" to-port="0" />
		<edge from-layer="3745" from-port="0" to-layer="3747" to-port="1" />
		<edge from-layer="3746" from-port="0" to-layer="3747" to-port="2" />
		<edge from-layer="3747" from-port="3" to-layer="3748" to-port="1" />
		<edge from-layer="3748" from-port="2" to-layer="3750" to-port="0" />
		<edge from-layer="3749" from-port="0" to-layer="3750" to-port="1" />
		<edge from-layer="3750" from-port="2" to-layer="3751" to-port="3" />
		<edge from-layer="3751" from-port="4" to-layer="3753" to-port="0" />
		<edge from-layer="3752" from-port="0" to-layer="3753" to-port="1" />
		<edge from-layer="3753" from-port="2" to-layer="3755" to-port="0" />
		<edge from-layer="3754" from-port="0" to-layer="3755" to-port="1" />
		<edge from-layer="3754" from-port="0" to-layer="3756" to-port="1" />
		<edge from-layer="3754" from-port="0" to-layer="3760" to-port="1" />
		<edge from-layer="3755" from-port="2" to-layer="3756" to-port="0" />
		<edge from-layer="3755" from-port="3" to-layer="3760" to-port="0" />
		<edge from-layer="3756" from-port="2" to-layer="3759" to-port="0" />
		<edge from-layer="3757" from-port="0" to-layer="3759" to-port="1" />
		<edge from-layer="3757" from-port="0" to-layer="3761" to-port="1" />
		<edge from-layer="3758" from-port="0" to-layer="3759" to-port="2" />
		<edge from-layer="3758" from-port="0" to-layer="3761" to-port="2" />
		<edge from-layer="3759" from-port="3" to-layer="3764" to-port="1" />
		<edge from-layer="3760" from-port="2" to-layer="3761" to-port="0" />
		<edge from-layer="3761" from-port="3" to-layer="3764" to-port="2" />
		<edge from-layer="3762" from-port="0" to-layer="3763" to-port="0" />
		<edge from-layer="3763" from-port="1" to-layer="3764" to-port="3" />
		<edge from-layer="3764" from-port="4" to-layer="3765" to-port="0" />
		<edge from-layer="3765" from-port="2" to-layer="3767" to-port="0" />
		<edge from-layer="3766" from-port="0" to-layer="3767" to-port="1" />
		<edge from-layer="3767" from-port="2" to-layer="3768" to-port="2" />
		<edge from-layer="3768" from-port="3" to-layer="3770" to-port="0" />
		<edge from-layer="3769" from-port="0" to-layer="3770" to-port="1" />
		<edge from-layer="3770" from-port="2" to-layer="3868" to-port="0" />
		<edge from-layer="3771" from-port="0" to-layer="3773" to-port="1" />
		<edge from-layer="3772" from-port="0" to-layer="3773" to-port="2" />
		<edge from-layer="3773" from-port="3" to-layer="3775" to-port="0" />
		<edge from-layer="3774" from-port="0" to-layer="3775" to-port="1" />
		<edge from-layer="3775" from-port="2" to-layer="3868" to-port="1" />
		<edge from-layer="3776" from-port="0" to-layer="3778" to-port="1" />
		<edge from-layer="3777" from-port="0" to-layer="3778" to-port="2" />
		<edge from-layer="3778" from-port="3" to-layer="3788" to-port="0" />
		<edge from-layer="3779" from-port="0" to-layer="3781" to-port="1" />
		<edge from-layer="3780" from-port="0" to-layer="3781" to-port="2" />
		<edge from-layer="3781" from-port="3" to-layer="3784" to-port="0" />
		<edge from-layer="3781" from-port="3" to-layer="3809" to-port="0" />
		<edge from-layer="3782" from-port="0" to-layer="3783" to-port="0" />
		<edge from-layer="3783" from-port="1" to-layer="3784" to-port="1" />
		<edge from-layer="3784" from-port="2" to-layer="3785" to-port="0" />
		<edge from-layer="3785" from-port="1" to-layer="3787" to-port="0" />
		<edge from-layer="3786" from-port="0" to-layer="3787" to-port="1" />
		<edge from-layer="3787" from-port="2" to-layer="3809" to-port="1" />
		<edge from-layer="3787" from-port="2" to-layer="3788" to-port="1" />
		<edge from-layer="3787" from-port="2" to-layer="3800" to-port="1" />
		<edge from-layer="3788" from-port="2" to-layer="3791" to-port="0" />
		<edge from-layer="3788" from-port="2" to-layer="3829" to-port="0" />
		<edge from-layer="3789" from-port="0" to-layer="3790" to-port="0" />
		<edge from-layer="3790" from-port="1" to-layer="3791" to-port="1" />
		<edge from-layer="3791" from-port="2" to-layer="3796" to-port="0" />
		<edge from-layer="3791" from-port="2" to-layer="3803" to-port="0" />
		<edge from-layer="3792" from-port="0" to-layer="3796" to-port="1" />
		<edge from-layer="3793" from-port="0" to-layer="3796" to-port="2" />
		<edge from-layer="3794" from-port="0" to-layer="3796" to-port="3" />
		<edge from-layer="3795" from-port="0" to-layer="3796" to-port="4" />
		<edge from-layer="3796" from-port="5" to-layer="3806" to-port="0" />
		<edge from-layer="3797" from-port="0" to-layer="3799" to-port="1" />
		<edge from-layer="3798" from-port="0" to-layer="3799" to-port="2" />
		<edge from-layer="3799" from-port="3" to-layer="3800" to-port="0" />
		<edge from-layer="3800" from-port="2" to-layer="3802" to-port="0" />
		<edge from-layer="3800" from-port="2" to-layer="3835" to-port="0" />
		<edge from-layer="3801" from-port="0" to-layer="3802" to-port="1" />
		<edge from-layer="3802" from-port="2" to-layer="3804" to-port="0" />
		<edge from-layer="3803" from-port="1" to-layer="3804" to-port="1" />
		<edge from-layer="3804" from-port="2" to-layer="3805" to-port="0" />
		<edge from-layer="3805" from-port="1" to-layer="3806" to-port="1" />
		<edge from-layer="3806" from-port="2" to-layer="3808" to-port="0" />
		<edge from-layer="3807" from-port="0" to-layer="3808" to-port="1" />
		<edge from-layer="3808" from-port="2" to-layer="3816" to-port="0" />
		<edge from-layer="3809" from-port="2" to-layer="3831" to-port="0" />
		<edge from-layer="3809" from-port="2" to-layer="3811" to-port="0" />
		<edge from-layer="3810" from-port="0" to-layer="3811" to-port="1" />
		<edge from-layer="3811" from-port="2" to-layer="3816" to-port="1" />
		<edge from-layer="3812" from-port="0" to-layer="3816" to-port="2" />
		<edge from-layer="3813" from-port="0" to-layer="3814" to-port="0" />
		<edge from-layer="3814" from-port="1" to-layer="3816" to-port="3" />
		<edge from-layer="3815" from-port="0" to-layer="3816" to-port="4" />
		<edge from-layer="3816" from-port="5" to-layer="3819" to-port="0" />
		<edge from-layer="3817" from-port="0" to-layer="3819" to-port="1" />
		<edge from-layer="3818" from-port="0" to-layer="3820" to-port="1" />
		<edge from-layer="3818" from-port="0" to-layer="3819" to-port="2" />
		<edge from-layer="3819" from-port="3" to-layer="3820" to-port="0" />
		<edge from-layer="3820" from-port="2" to-layer="3825" to-port="0" />
		<edge from-layer="3821" from-port="0" to-layer="3825" to-port="1" />
		<edge from-layer="3822" from-port="0" to-layer="3825" to-port="2" />
		<edge from-layer="3823" from-port="0" to-layer="3825" to-port="3" />
		<edge from-layer="3824" from-port="0" to-layer="3825" to-port="4" />
		<edge from-layer="3825" from-port="5" to-layer="3826" to-port="0" />
		<edge from-layer="3826" from-port="1" to-layer="3827" to-port="0" />
		<edge from-layer="3827" from-port="1" to-layer="3829" to-port="1" />
		<edge from-layer="3827" from-port="1" to-layer="3835" to-port="1" />
		<edge from-layer="3827" from-port="1" to-layer="3831" to-port="1" />
		<edge from-layer="3828" from-port="0" to-layer="3829" to-port="2" />
		<edge from-layer="3829" from-port="3" to-layer="3839" to-port="0" />
		<edge from-layer="3830" from-port="0" to-layer="3831" to-port="2" />
		<edge from-layer="3831" from-port="3" to-layer="3833" to-port="0" />
		<edge from-layer="3832" from-port="0" to-layer="3833" to-port="1" />
		<edge from-layer="3833" from-port="2" to-layer="3839" to-port="1" />
		<edge from-layer="3834" from-port="0" to-layer="3835" to-port="2" />
		<edge from-layer="3835" from-port="3" to-layer="3837" to-port="0" />
		<edge from-layer="3836" from-port="0" to-layer="3837" to-port="1" />
		<edge from-layer="3837" from-port="2" to-layer="3838" to-port="0" />
		<edge from-layer="3838" from-port="1" to-layer="3839" to-port="2" />
		<edge from-layer="3839" from-port="3" to-layer="3844" to-port="0" />
		<edge from-layer="3839" from-port="3" to-layer="3864" to-port="0" />
		<edge from-layer="3840" from-port="0" to-layer="3851" to-port="0" />
		<edge from-layer="3841" from-port="0" to-layer="3851" to-port="1" />
		<edge from-layer="3842" from-port="0" to-layer="3851" to-port="2" />
		<edge from-layer="3843" from-port="0" to-layer="3848" to-port="0" />
		<edge from-layer="3844" from-port="1" to-layer="3847" to-port="0" />
		<edge from-layer="3845" from-port="0" to-layer="3847" to-port="1" />
		<edge from-layer="3846" from-port="0" to-layer="3847" to-port="2" />
		<edge from-layer="3847" from-port="3" to-layer="3848" to-port="1" />
		<edge from-layer="3848" from-port="2" to-layer="3850" to-port="0" />
		<edge from-layer="3849" from-port="0" to-layer="3850" to-port="1" />
		<edge from-layer="3850" from-port="2" to-layer="3851" to-port="3" />
		<edge from-layer="3851" from-port="4" to-layer="3853" to-port="0" />
		<edge from-layer="3852" from-port="0" to-layer="3853" to-port="1" />
		<edge from-layer="3853" from-port="2" to-layer="3855" to-port="0" />
		<edge from-layer="3854" from-port="0" to-layer="3860" to-port="1" />
		<edge from-layer="3854" from-port="0" to-layer="3856" to-port="1" />
		<edge from-layer="3854" from-port="0" to-layer="3855" to-port="1" />
		<edge from-layer="3855" from-port="3" to-layer="3860" to-port="0" />
		<edge from-layer="3855" from-port="2" to-layer="3856" to-port="0" />
		<edge from-layer="3856" from-port="2" to-layer="3859" to-port="0" />
		<edge from-layer="3857" from-port="0" to-layer="3861" to-port="1" />
		<edge from-layer="3857" from-port="0" to-layer="3859" to-port="1" />
		<edge from-layer="3858" from-port="0" to-layer="3859" to-port="2" />
		<edge from-layer="3858" from-port="0" to-layer="3861" to-port="2" />
		<edge from-layer="3859" from-port="3" to-layer="3864" to-port="1" />
		<edge from-layer="3860" from-port="2" to-layer="3861" to-port="0" />
		<edge from-layer="3861" from-port="3" to-layer="3864" to-port="2" />
		<edge from-layer="3862" from-port="0" to-layer="3863" to-port="0" />
		<edge from-layer="3863" from-port="1" to-layer="3864" to-port="3" />
		<edge from-layer="3864" from-port="4" to-layer="3865" to-port="0" />
		<edge from-layer="3865" from-port="2" to-layer="3867" to-port="0" />
		<edge from-layer="3866" from-port="0" to-layer="3867" to-port="1" />
		<edge from-layer="3867" from-port="2" to-layer="3868" to-port="2" />
		<edge from-layer="3868" from-port="3" to-layer="3870" to-port="0" />
		<edge from-layer="3869" from-port="0" to-layer="3870" to-port="1" />
		<edge from-layer="3870" from-port="2" to-layer="3968" to-port="0" />
		<edge from-layer="3871" from-port="0" to-layer="3873" to-port="1" />
		<edge from-layer="3872" from-port="0" to-layer="3873" to-port="2" />
		<edge from-layer="3873" from-port="3" to-layer="3875" to-port="0" />
		<edge from-layer="3874" from-port="0" to-layer="3875" to-port="1" />
		<edge from-layer="3875" from-port="2" to-layer="3968" to-port="1" />
		<edge from-layer="3876" from-port="0" to-layer="3878" to-port="1" />
		<edge from-layer="3877" from-port="0" to-layer="3878" to-port="2" />
		<edge from-layer="3878" from-port="3" to-layer="3888" to-port="0" />
		<edge from-layer="3879" from-port="0" to-layer="3881" to-port="1" />
		<edge from-layer="3880" from-port="0" to-layer="3881" to-port="2" />
		<edge from-layer="3881" from-port="3" to-layer="3884" to-port="0" />
		<edge from-layer="3881" from-port="3" to-layer="3909" to-port="0" />
		<edge from-layer="3882" from-port="0" to-layer="3883" to-port="0" />
		<edge from-layer="3883" from-port="1" to-layer="3884" to-port="1" />
		<edge from-layer="3884" from-port="2" to-layer="3885" to-port="0" />
		<edge from-layer="3885" from-port="1" to-layer="3887" to-port="0" />
		<edge from-layer="3886" from-port="0" to-layer="3887" to-port="1" />
		<edge from-layer="3887" from-port="2" to-layer="3900" to-port="1" />
		<edge from-layer="3887" from-port="2" to-layer="3888" to-port="1" />
		<edge from-layer="3887" from-port="2" to-layer="3909" to-port="1" />
		<edge from-layer="3888" from-port="2" to-layer="3929" to-port="0" />
		<edge from-layer="3888" from-port="2" to-layer="3891" to-port="0" />
		<edge from-layer="3889" from-port="0" to-layer="3890" to-port="0" />
		<edge from-layer="3890" from-port="1" to-layer="3891" to-port="1" />
		<edge from-layer="3891" from-port="2" to-layer="3896" to-port="0" />
		<edge from-layer="3891" from-port="2" to-layer="3903" to-port="0" />
		<edge from-layer="3892" from-port="0" to-layer="3896" to-port="1" />
		<edge from-layer="3893" from-port="0" to-layer="3896" to-port="2" />
		<edge from-layer="3894" from-port="0" to-layer="3896" to-port="3" />
		<edge from-layer="3895" from-port="0" to-layer="3896" to-port="4" />
		<edge from-layer="3896" from-port="5" to-layer="3906" to-port="0" />
		<edge from-layer="3897" from-port="0" to-layer="3899" to-port="1" />
		<edge from-layer="3898" from-port="0" to-layer="3899" to-port="2" />
		<edge from-layer="3899" from-port="3" to-layer="3900" to-port="0" />
		<edge from-layer="3900" from-port="2" to-layer="3935" to-port="0" />
		<edge from-layer="3900" from-port="2" to-layer="3902" to-port="0" />
		<edge from-layer="3901" from-port="0" to-layer="3902" to-port="1" />
		<edge from-layer="3902" from-port="2" to-layer="3904" to-port="0" />
		<edge from-layer="3903" from-port="1" to-layer="3904" to-port="1" />
		<edge from-layer="3904" from-port="2" to-layer="3905" to-port="0" />
		<edge from-layer="3905" from-port="1" to-layer="3906" to-port="1" />
		<edge from-layer="3906" from-port="2" to-layer="3908" to-port="0" />
		<edge from-layer="3907" from-port="0" to-layer="3908" to-port="1" />
		<edge from-layer="3908" from-port="2" to-layer="3916" to-port="0" />
		<edge from-layer="3909" from-port="2" to-layer="3931" to-port="0" />
		<edge from-layer="3909" from-port="2" to-layer="3911" to-port="0" />
		<edge from-layer="3910" from-port="0" to-layer="3911" to-port="1" />
		<edge from-layer="3911" from-port="2" to-layer="3916" to-port="1" />
		<edge from-layer="3912" from-port="0" to-layer="3916" to-port="2" />
		<edge from-layer="3913" from-port="0" to-layer="3914" to-port="0" />
		<edge from-layer="3914" from-port="1" to-layer="3916" to-port="3" />
		<edge from-layer="3915" from-port="0" to-layer="3916" to-port="4" />
		<edge from-layer="3916" from-port="5" to-layer="3919" to-port="0" />
		<edge from-layer="3917" from-port="0" to-layer="3919" to-port="1" />
		<edge from-layer="3918" from-port="0" to-layer="3920" to-port="1" />
		<edge from-layer="3918" from-port="0" to-layer="3919" to-port="2" />
		<edge from-layer="3919" from-port="3" to-layer="3920" to-port="0" />
		<edge from-layer="3920" from-port="2" to-layer="3925" to-port="0" />
		<edge from-layer="3921" from-port="0" to-layer="3925" to-port="1" />
		<edge from-layer="3922" from-port="0" to-layer="3925" to-port="2" />
		<edge from-layer="3923" from-port="0" to-layer="3925" to-port="3" />
		<edge from-layer="3924" from-port="0" to-layer="3925" to-port="4" />
		<edge from-layer="3925" from-port="5" to-layer="3926" to-port="0" />
		<edge from-layer="3926" from-port="1" to-layer="3927" to-port="0" />
		<edge from-layer="3927" from-port="1" to-layer="3929" to-port="1" />
		<edge from-layer="3927" from-port="1" to-layer="3935" to-port="1" />
		<edge from-layer="3927" from-port="1" to-layer="3931" to-port="1" />
		<edge from-layer="3928" from-port="0" to-layer="3929" to-port="2" />
		<edge from-layer="3929" from-port="3" to-layer="3939" to-port="0" />
		<edge from-layer="3930" from-port="0" to-layer="3931" to-port="2" />
		<edge from-layer="3931" from-port="3" to-layer="3933" to-port="0" />
		<edge from-layer="3932" from-port="0" to-layer="3933" to-port="1" />
		<edge from-layer="3933" from-port="2" to-layer="3939" to-port="1" />
		<edge from-layer="3934" from-port="0" to-layer="3935" to-port="2" />
		<edge from-layer="3935" from-port="3" to-layer="3937" to-port="0" />
		<edge from-layer="3936" from-port="0" to-layer="3937" to-port="1" />
		<edge from-layer="3937" from-port="2" to-layer="3938" to-port="0" />
		<edge from-layer="3938" from-port="1" to-layer="3939" to-port="2" />
		<edge from-layer="3939" from-port="3" to-layer="3964" to-port="0" />
		<edge from-layer="3939" from-port="3" to-layer="3944" to-port="0" />
		<edge from-layer="3940" from-port="0" to-layer="3951" to-port="0" />
		<edge from-layer="3941" from-port="0" to-layer="3951" to-port="1" />
		<edge from-layer="3942" from-port="0" to-layer="3951" to-port="2" />
		<edge from-layer="3943" from-port="0" to-layer="3948" to-port="0" />
		<edge from-layer="3944" from-port="1" to-layer="3947" to-port="0" />
		<edge from-layer="3945" from-port="0" to-layer="3947" to-port="1" />
		<edge from-layer="3946" from-port="0" to-layer="3947" to-port="2" />
		<edge from-layer="3947" from-port="3" to-layer="3948" to-port="1" />
		<edge from-layer="3948" from-port="2" to-layer="3950" to-port="0" />
		<edge from-layer="3949" from-port="0" to-layer="3950" to-port="1" />
		<edge from-layer="3950" from-port="2" to-layer="3951" to-port="3" />
		<edge from-layer="3951" from-port="4" to-layer="3953" to-port="0" />
		<edge from-layer="3952" from-port="0" to-layer="3953" to-port="1" />
		<edge from-layer="3953" from-port="2" to-layer="3955" to-port="0" />
		<edge from-layer="3954" from-port="0" to-layer="3956" to-port="1" />
		<edge from-layer="3954" from-port="0" to-layer="3955" to-port="1" />
		<edge from-layer="3954" from-port="0" to-layer="3960" to-port="1" />
		<edge from-layer="3955" from-port="2" to-layer="3956" to-port="0" />
		<edge from-layer="3955" from-port="3" to-layer="3960" to-port="0" />
		<edge from-layer="3956" from-port="2" to-layer="3959" to-port="0" />
		<edge from-layer="3957" from-port="0" to-layer="3959" to-port="1" />
		<edge from-layer="3957" from-port="0" to-layer="3961" to-port="1" />
		<edge from-layer="3958" from-port="0" to-layer="3959" to-port="2" />
		<edge from-layer="3958" from-port="0" to-layer="3961" to-port="2" />
		<edge from-layer="3959" from-port="3" to-layer="3964" to-port="1" />
		<edge from-layer="3960" from-port="2" to-layer="3961" to-port="0" />
		<edge from-layer="3961" from-port="3" to-layer="3964" to-port="2" />
		<edge from-layer="3962" from-port="0" to-layer="3963" to-port="0" />
		<edge from-layer="3963" from-port="1" to-layer="3964" to-port="3" />
		<edge from-layer="3964" from-port="4" to-layer="3965" to-port="0" />
		<edge from-layer="3965" from-port="2" to-layer="3967" to-port="0" />
		<edge from-layer="3966" from-port="0" to-layer="3967" to-port="1" />
		<edge from-layer="3967" from-port="2" to-layer="3968" to-port="2" />
		<edge from-layer="3968" from-port="3" to-layer="3970" to-port="0" />
		<edge from-layer="3969" from-port="0" to-layer="3970" to-port="1" />
		<edge from-layer="3970" from-port="2" to-layer="4068" to-port="0" />
		<edge from-layer="3971" from-port="0" to-layer="3973" to-port="1" />
		<edge from-layer="3972" from-port="0" to-layer="3973" to-port="2" />
		<edge from-layer="3973" from-port="3" to-layer="3975" to-port="0" />
		<edge from-layer="3974" from-port="0" to-layer="3975" to-port="1" />
		<edge from-layer="3975" from-port="2" to-layer="4068" to-port="1" />
		<edge from-layer="3976" from-port="0" to-layer="3978" to-port="1" />
		<edge from-layer="3977" from-port="0" to-layer="3978" to-port="2" />
		<edge from-layer="3978" from-port="3" to-layer="3988" to-port="0" />
		<edge from-layer="3979" from-port="0" to-layer="3981" to-port="1" />
		<edge from-layer="3980" from-port="0" to-layer="3981" to-port="2" />
		<edge from-layer="3981" from-port="3" to-layer="4009" to-port="0" />
		<edge from-layer="3981" from-port="3" to-layer="3984" to-port="0" />
		<edge from-layer="3982" from-port="0" to-layer="3983" to-port="0" />
		<edge from-layer="3983" from-port="1" to-layer="3984" to-port="1" />
		<edge from-layer="3984" from-port="2" to-layer="3985" to-port="0" />
		<edge from-layer="3985" from-port="1" to-layer="3987" to-port="0" />
		<edge from-layer="3986" from-port="0" to-layer="3987" to-port="1" />
		<edge from-layer="3987" from-port="2" to-layer="3988" to-port="1" />
		<edge from-layer="3987" from-port="2" to-layer="4000" to-port="1" />
		<edge from-layer="3987" from-port="2" to-layer="4009" to-port="1" />
		<edge from-layer="3988" from-port="2" to-layer="3991" to-port="0" />
		<edge from-layer="3988" from-port="2" to-layer="4029" to-port="0" />
		<edge from-layer="3989" from-port="0" to-layer="3990" to-port="0" />
		<edge from-layer="3990" from-port="1" to-layer="3991" to-port="1" />
		<edge from-layer="3991" from-port="2" to-layer="3996" to-port="0" />
		<edge from-layer="3991" from-port="2" to-layer="4003" to-port="0" />
		<edge from-layer="3992" from-port="0" to-layer="3996" to-port="1" />
		<edge from-layer="3993" from-port="0" to-layer="3996" to-port="2" />
		<edge from-layer="3994" from-port="0" to-layer="3996" to-port="3" />
		<edge from-layer="3995" from-port="0" to-layer="3996" to-port="4" />
		<edge from-layer="3996" from-port="5" to-layer="4006" to-port="0" />
		<edge from-layer="3997" from-port="0" to-layer="3999" to-port="1" />
		<edge from-layer="3998" from-port="0" to-layer="3999" to-port="2" />
		<edge from-layer="3999" from-port="3" to-layer="4000" to-port="0" />
		<edge from-layer="4000" from-port="2" to-layer="4002" to-port="0" />
		<edge from-layer="4000" from-port="2" to-layer="4035" to-port="0" />
		<edge from-layer="4001" from-port="0" to-layer="4002" to-port="1" />
		<edge from-layer="4002" from-port="2" to-layer="4004" to-port="0" />
		<edge from-layer="4003" from-port="1" to-layer="4004" to-port="1" />
		<edge from-layer="4004" from-port="2" to-layer="4005" to-port="0" />
		<edge from-layer="4005" from-port="1" to-layer="4006" to-port="1" />
		<edge from-layer="4006" from-port="2" to-layer="4008" to-port="0" />
		<edge from-layer="4007" from-port="0" to-layer="4008" to-port="1" />
		<edge from-layer="4008" from-port="2" to-layer="4016" to-port="0" />
		<edge from-layer="4009" from-port="2" to-layer="4011" to-port="0" />
		<edge from-layer="4009" from-port="2" to-layer="4031" to-port="0" />
		<edge from-layer="4010" from-port="0" to-layer="4011" to-port="1" />
		<edge from-layer="4011" from-port="2" to-layer="4016" to-port="1" />
		<edge from-layer="4012" from-port="0" to-layer="4016" to-port="2" />
		<edge from-layer="4013" from-port="0" to-layer="4014" to-port="0" />
		<edge from-layer="4014" from-port="1" to-layer="4016" to-port="3" />
		<edge from-layer="4015" from-port="0" to-layer="4016" to-port="4" />
		<edge from-layer="4016" from-port="5" to-layer="4019" to-port="0" />
		<edge from-layer="4017" from-port="0" to-layer="4019" to-port="1" />
		<edge from-layer="4018" from-port="0" to-layer="4020" to-port="1" />
		<edge from-layer="4018" from-port="0" to-layer="4019" to-port="2" />
		<edge from-layer="4019" from-port="3" to-layer="4020" to-port="0" />
		<edge from-layer="4020" from-port="2" to-layer="4025" to-port="0" />
		<edge from-layer="4021" from-port="0" to-layer="4025" to-port="1" />
		<edge from-layer="4022" from-port="0" to-layer="4025" to-port="2" />
		<edge from-layer="4023" from-port="0" to-layer="4025" to-port="3" />
		<edge from-layer="4024" from-port="0" to-layer="4025" to-port="4" />
		<edge from-layer="4025" from-port="5" to-layer="4026" to-port="0" />
		<edge from-layer="4026" from-port="1" to-layer="4027" to-port="0" />
		<edge from-layer="4027" from-port="1" to-layer="4029" to-port="1" />
		<edge from-layer="4027" from-port="1" to-layer="4035" to-port="1" />
		<edge from-layer="4027" from-port="1" to-layer="4031" to-port="1" />
		<edge from-layer="4028" from-port="0" to-layer="4029" to-port="2" />
		<edge from-layer="4029" from-port="3" to-layer="4039" to-port="0" />
		<edge from-layer="4030" from-port="0" to-layer="4031" to-port="2" />
		<edge from-layer="4031" from-port="3" to-layer="4033" to-port="0" />
		<edge from-layer="4032" from-port="0" to-layer="4033" to-port="1" />
		<edge from-layer="4033" from-port="2" to-layer="4039" to-port="1" />
		<edge from-layer="4034" from-port="0" to-layer="4035" to-port="2" />
		<edge from-layer="4035" from-port="3" to-layer="4037" to-port="0" />
		<edge from-layer="4036" from-port="0" to-layer="4037" to-port="1" />
		<edge from-layer="4037" from-port="2" to-layer="4038" to-port="0" />
		<edge from-layer="4038" from-port="1" to-layer="4039" to-port="2" />
		<edge from-layer="4039" from-port="3" to-layer="4044" to-port="0" />
		<edge from-layer="4039" from-port="3" to-layer="4064" to-port="0" />
		<edge from-layer="4040" from-port="0" to-layer="4051" to-port="0" />
		<edge from-layer="4041" from-port="0" to-layer="4051" to-port="1" />
		<edge from-layer="4042" from-port="0" to-layer="4051" to-port="2" />
		<edge from-layer="4043" from-port="0" to-layer="4048" to-port="0" />
		<edge from-layer="4044" from-port="1" to-layer="4047" to-port="0" />
		<edge from-layer="4045" from-port="0" to-layer="4047" to-port="1" />
		<edge from-layer="4046" from-port="0" to-layer="4047" to-port="2" />
		<edge from-layer="4047" from-port="3" to-layer="4048" to-port="1" />
		<edge from-layer="4048" from-port="2" to-layer="4050" to-port="0" />
		<edge from-layer="4049" from-port="0" to-layer="4050" to-port="1" />
		<edge from-layer="4050" from-port="2" to-layer="4051" to-port="3" />
		<edge from-layer="4051" from-port="4" to-layer="4053" to-port="0" />
		<edge from-layer="4052" from-port="0" to-layer="4053" to-port="1" />
		<edge from-layer="4053" from-port="2" to-layer="4055" to-port="0" />
		<edge from-layer="4054" from-port="0" to-layer="4060" to-port="1" />
		<edge from-layer="4054" from-port="0" to-layer="4056" to-port="1" />
		<edge from-layer="4054" from-port="0" to-layer="4055" to-port="1" />
		<edge from-layer="4055" from-port="3" to-layer="4060" to-port="0" />
		<edge from-layer="4055" from-port="2" to-layer="4056" to-port="0" />
		<edge from-layer="4056" from-port="2" to-layer="4059" to-port="0" />
		<edge from-layer="4057" from-port="0" to-layer="4059" to-port="1" />
		<edge from-layer="4057" from-port="0" to-layer="4061" to-port="1" />
		<edge from-layer="4058" from-port="0" to-layer="4059" to-port="2" />
		<edge from-layer="4058" from-port="0" to-layer="4061" to-port="2" />
		<edge from-layer="4059" from-port="3" to-layer="4064" to-port="1" />
		<edge from-layer="4060" from-port="2" to-layer="4061" to-port="0" />
		<edge from-layer="4061" from-port="3" to-layer="4064" to-port="2" />
		<edge from-layer="4062" from-port="0" to-layer="4063" to-port="0" />
		<edge from-layer="4063" from-port="1" to-layer="4064" to-port="3" />
		<edge from-layer="4064" from-port="4" to-layer="4065" to-port="0" />
		<edge from-layer="4065" from-port="2" to-layer="4067" to-port="0" />
		<edge from-layer="4066" from-port="0" to-layer="4067" to-port="1" />
		<edge from-layer="4067" from-port="2" to-layer="4068" to-port="2" />
		<edge from-layer="4068" from-port="3" to-layer="4070" to-port="0" />
		<edge from-layer="4069" from-port="0" to-layer="4070" to-port="1" />
		<edge from-layer="4070" from-port="2" to-layer="4168" to-port="0" />
		<edge from-layer="4071" from-port="0" to-layer="4073" to-port="1" />
		<edge from-layer="4072" from-port="0" to-layer="4073" to-port="2" />
		<edge from-layer="4073" from-port="3" to-layer="4075" to-port="0" />
		<edge from-layer="4074" from-port="0" to-layer="4075" to-port="1" />
		<edge from-layer="4075" from-port="2" to-layer="4168" to-port="1" />
		<edge from-layer="4076" from-port="0" to-layer="4078" to-port="1" />
		<edge from-layer="4077" from-port="0" to-layer="4078" to-port="2" />
		<edge from-layer="4078" from-port="3" to-layer="4088" to-port="0" />
		<edge from-layer="4079" from-port="0" to-layer="4081" to-port="1" />
		<edge from-layer="4080" from-port="0" to-layer="4081" to-port="2" />
		<edge from-layer="4081" from-port="3" to-layer="4109" to-port="0" />
		<edge from-layer="4081" from-port="3" to-layer="4084" to-port="0" />
		<edge from-layer="4082" from-port="0" to-layer="4083" to-port="0" />
		<edge from-layer="4083" from-port="1" to-layer="4084" to-port="1" />
		<edge from-layer="4084" from-port="2" to-layer="4085" to-port="0" />
		<edge from-layer="4085" from-port="1" to-layer="4087" to-port="0" />
		<edge from-layer="4086" from-port="0" to-layer="4087" to-port="1" />
		<edge from-layer="4087" from-port="2" to-layer="4088" to-port="1" />
		<edge from-layer="4087" from-port="2" to-layer="4109" to-port="1" />
		<edge from-layer="4087" from-port="2" to-layer="4100" to-port="1" />
		<edge from-layer="4088" from-port="2" to-layer="4129" to-port="0" />
		<edge from-layer="4088" from-port="2" to-layer="4091" to-port="0" />
		<edge from-layer="4089" from-port="0" to-layer="4090" to-port="0" />
		<edge from-layer="4090" from-port="1" to-layer="4091" to-port="1" />
		<edge from-layer="4091" from-port="2" to-layer="4096" to-port="0" />
		<edge from-layer="4091" from-port="2" to-layer="4103" to-port="0" />
		<edge from-layer="4092" from-port="0" to-layer="4096" to-port="1" />
		<edge from-layer="4093" from-port="0" to-layer="4096" to-port="2" />
		<edge from-layer="4094" from-port="0" to-layer="4096" to-port="3" />
		<edge from-layer="4095" from-port="0" to-layer="4096" to-port="4" />
		<edge from-layer="4096" from-port="5" to-layer="4106" to-port="0" />
		<edge from-layer="4097" from-port="0" to-layer="4099" to-port="1" />
		<edge from-layer="4098" from-port="0" to-layer="4099" to-port="2" />
		<edge from-layer="4099" from-port="3" to-layer="4100" to-port="0" />
		<edge from-layer="4100" from-port="2" to-layer="4135" to-port="0" />
		<edge from-layer="4100" from-port="2" to-layer="4102" to-port="0" />
		<edge from-layer="4101" from-port="0" to-layer="4102" to-port="1" />
		<edge from-layer="4102" from-port="2" to-layer="4104" to-port="0" />
		<edge from-layer="4103" from-port="1" to-layer="4104" to-port="1" />
		<edge from-layer="4104" from-port="2" to-layer="4105" to-port="0" />
		<edge from-layer="4105" from-port="1" to-layer="4106" to-port="1" />
		<edge from-layer="4106" from-port="2" to-layer="4108" to-port="0" />
		<edge from-layer="4107" from-port="0" to-layer="4108" to-port="1" />
		<edge from-layer="4108" from-port="2" to-layer="4116" to-port="0" />
		<edge from-layer="4109" from-port="2" to-layer="4131" to-port="0" />
		<edge from-layer="4109" from-port="2" to-layer="4111" to-port="0" />
		<edge from-layer="4110" from-port="0" to-layer="4111" to-port="1" />
		<edge from-layer="4111" from-port="2" to-layer="4116" to-port="1" />
		<edge from-layer="4112" from-port="0" to-layer="4116" to-port="2" />
		<edge from-layer="4113" from-port="0" to-layer="4114" to-port="0" />
		<edge from-layer="4114" from-port="1" to-layer="4116" to-port="3" />
		<edge from-layer="4115" from-port="0" to-layer="4116" to-port="4" />
		<edge from-layer="4116" from-port="5" to-layer="4119" to-port="0" />
		<edge from-layer="4117" from-port="0" to-layer="4119" to-port="1" />
		<edge from-layer="4118" from-port="0" to-layer="4119" to-port="2" />
		<edge from-layer="4118" from-port="0" to-layer="4120" to-port="1" />
		<edge from-layer="4119" from-port="3" to-layer="4120" to-port="0" />
		<edge from-layer="4120" from-port="2" to-layer="4125" to-port="0" />
		<edge from-layer="4121" from-port="0" to-layer="4125" to-port="1" />
		<edge from-layer="4122" from-port="0" to-layer="4125" to-port="2" />
		<edge from-layer="4123" from-port="0" to-layer="4125" to-port="3" />
		<edge from-layer="4124" from-port="0" to-layer="4125" to-port="4" />
		<edge from-layer="4125" from-port="5" to-layer="4126" to-port="0" />
		<edge from-layer="4126" from-port="1" to-layer="4127" to-port="0" />
		<edge from-layer="4127" from-port="1" to-layer="4129" to-port="1" />
		<edge from-layer="4127" from-port="1" to-layer="4131" to-port="1" />
		<edge from-layer="4127" from-port="1" to-layer="4135" to-port="1" />
		<edge from-layer="4128" from-port="0" to-layer="4129" to-port="2" />
		<edge from-layer="4129" from-port="3" to-layer="4139" to-port="0" />
		<edge from-layer="4130" from-port="0" to-layer="4131" to-port="2" />
		<edge from-layer="4131" from-port="3" to-layer="4133" to-port="0" />
		<edge from-layer="4132" from-port="0" to-layer="4133" to-port="1" />
		<edge from-layer="4133" from-port="2" to-layer="4139" to-port="1" />
		<edge from-layer="4134" from-port="0" to-layer="4135" to-port="2" />
		<edge from-layer="4135" from-port="3" to-layer="4137" to-port="0" />
		<edge from-layer="4136" from-port="0" to-layer="4137" to-port="1" />
		<edge from-layer="4137" from-port="2" to-layer="4138" to-port="0" />
		<edge from-layer="4138" from-port="1" to-layer="4139" to-port="2" />
		<edge from-layer="4139" from-port="3" to-layer="4144" to-port="0" />
		<edge from-layer="4139" from-port="3" to-layer="4164" to-port="0" />
		<edge from-layer="4140" from-port="0" to-layer="4151" to-port="0" />
		<edge from-layer="4141" from-port="0" to-layer="4151" to-port="1" />
		<edge from-layer="4142" from-port="0" to-layer="4151" to-port="2" />
		<edge from-layer="4143" from-port="0" to-layer="4148" to-port="0" />
		<edge from-layer="4144" from-port="1" to-layer="4147" to-port="0" />
		<edge from-layer="4145" from-port="0" to-layer="4147" to-port="1" />
		<edge from-layer="4146" from-port="0" to-layer="4147" to-port="2" />
		<edge from-layer="4147" from-port="3" to-layer="4148" to-port="1" />
		<edge from-layer="4148" from-port="2" to-layer="4150" to-port="0" />
		<edge from-layer="4149" from-port="0" to-layer="4150" to-port="1" />
		<edge from-layer="4150" from-port="2" to-layer="4151" to-port="3" />
		<edge from-layer="4151" from-port="4" to-layer="4153" to-port="0" />
		<edge from-layer="4152" from-port="0" to-layer="4153" to-port="1" />
		<edge from-layer="4153" from-port="2" to-layer="4155" to-port="0" />
		<edge from-layer="4154" from-port="0" to-layer="4155" to-port="1" />
		<edge from-layer="4154" from-port="0" to-layer="4160" to-port="1" />
		<edge from-layer="4154" from-port="0" to-layer="4156" to-port="1" />
		<edge from-layer="4155" from-port="3" to-layer="4160" to-port="0" />
		<edge from-layer="4155" from-port="2" to-layer="4156" to-port="0" />
		<edge from-layer="4156" from-port="2" to-layer="4159" to-port="0" />
		<edge from-layer="4157" from-port="0" to-layer="4159" to-port="1" />
		<edge from-layer="4157" from-port="0" to-layer="4161" to-port="1" />
		<edge from-layer="4158" from-port="0" to-layer="4159" to-port="2" />
		<edge from-layer="4158" from-port="0" to-layer="4161" to-port="2" />
		<edge from-layer="4159" from-port="3" to-layer="4164" to-port="1" />
		<edge from-layer="4160" from-port="2" to-layer="4161" to-port="0" />
		<edge from-layer="4161" from-port="3" to-layer="4164" to-port="2" />
		<edge from-layer="4162" from-port="0" to-layer="4163" to-port="0" />
		<edge from-layer="4163" from-port="1" to-layer="4164" to-port="3" />
		<edge from-layer="4164" from-port="4" to-layer="4165" to-port="0" />
		<edge from-layer="4165" from-port="2" to-layer="4167" to-port="0" />
		<edge from-layer="4166" from-port="0" to-layer="4167" to-port="1" />
		<edge from-layer="4167" from-port="2" to-layer="4168" to-port="2" />
		<edge from-layer="4168" from-port="3" to-layer="4170" to-port="0" />
		<edge from-layer="4169" from-port="0" to-layer="4170" to-port="1" />
		<edge from-layer="4170" from-port="2" to-layer="4174" to-port="0" />
		<edge from-layer="4171" from-port="0" to-layer="4174" to-port="1" />
		<edge from-layer="4172" from-port="0" to-layer="4174" to-port="3" />
		<edge from-layer="4173" from-port="0" to-layer="4174" to-port="4" />
		<edge from-layer="4174" from-port="5" to-layer="4175" to-port="0" />
	</edges>
	<rt_info>
		<Runtime_version value="2025.4.1-20426-82bbf0292c5-releases/2025/4" />
		<conversion_parameters>
			<framework value="pytorch" />
			<is_python_object value="True" />
		</conversion_parameters>
		<model_info>
			<iou_threshold value="0.7" />
			<labels value="mrz" />
			<model_type value="YOLO" />
			<pad_value value="114" />
			<resize_type value="fit_to_window_letterbox" />
			<reverse_input_channels value="YES" />
			<scale_values value="255" />
		</model_info>
	</rt_info>
</net>
